example_data/o3dbpp_pct/PCT_rollcontainer_15200updates.pt (torch, 236314 bytes, 24 tensors)

actor.init_internal_node_embed.0.module.weight f4 [32, 6]
-0.3106201 0.004476734 -0.4304501 -0.32761467 -0.3465485 0.05986826 -0.07954676 0.2620021
-0.19521153 -0.17619951 -0.23800753 -0.22981411 -0.051347613 0.06370631 0.114325896 0.38806596
-0.37432063 -0.74184704 0.601946 -0.47019684 -0.17495891 -0.29280284 0.12752937 0.5462092
-0.10322721 -0.39021623 -0.48903507 -0.1214321 -0.18422756 0.21337244 0.07159198 0.08730847
0.3186052 -0.23773184 -0.19787887 -0.41999984 0.57950544 0.47497168 -0.15478225 -0.717875
0.036843434 -0.06878769 0.04741706 0.30490106 0.17736779 -0.35912788 -0.2642275 0.28969625
-0.03144356 0.22656457 0.16399157 -0.50641584 -0.29475594 0.37974155 1.8524668 -0.69747716
0.04570935 -1.4875823 0.6424949 0.3058052 -0.20116554 0.012371032 -0.89156944 0.366215
0.14348224 0.250286 -0.82260084 1.563307 0.0024164913 0.44655904 -1.6492864 0.3122484
-0.039790288 -0.7208078 -0.046245366 0.3990369 -0.2928578 -0.0033592158 -0.091238715 0.2199705
-0.13393201 -0.29622796 0.24752194 -0.35811025 0.3008756 0.047999177 0.20884998 -0.26150697
0.14497398 -0.66417724 0.3376728 0.03599852 0.2157619 -0.115594424 -0.41369817 0.06858889
-0.28261125 0.18663295 -0.44704434 -0.5854018 0.18798672 0.11395087 -0.06384835 0.023344448
0.025125572 -0.10628448 -0.10241986 -0.29358882 -0.010226375 -0.41055363 -0.40989277 -0.19888575
-0.18684073 -0.22125909 0.044478863 0.1444894 -1.1875826 -0.21002887 -0.16413324 0.31595835
0.066201575 0.09586341 0.038800206 -0.34561813 -0.44055012 -0.092655756 -0.33342123 -0.09720413
-0.81400293 -0.10362401 0.18933293 -0.23938711 -0.6764477 -0.5560566 -0.17117336 0.40524805
0.5377075 -0.27991536 0.070256226 0.2283831 -0.13646926 -0.7393361 -1.0294048 -0.18627909
0.06648456 -0.16539136 0.4900017 0.086957894 0.12963401 -0.60805815 0.5282771 -0.04440882
0.03433887 0.21475771 -0.09208515 -0.34887525 0.7410193 -0.08844059 0.205608 0.28009152
-0.5121508 -0.24825215 0.1703549 0.34344757 -0.05172375 0.40878916 -0.016647393 -0.21817629
0.08752935 -0.088615805 -0.3395169 0.12425056 0.17066763 -0.5456101 0.27606714 -0.3562167
-0.3034405 0.10580323 -0.1500854 -0.54029423 -0.43528304 -0.33505362 0.35581636 0.11370276
-0.22946177 -0.3975327 -0.26221555 0.7679616 -0.020991165 0.12956521 -0.63815856 -0.17385834
00000000: 9909 9fbe 91b1 923b f563 dcbe 1cbd a7be
00000010: ce6e b1be 6c38 753d 69e9 a2bd 2425 863e
00000020: 88e5 47be a56d 34be 3fb8 73be 6454 6bbe
00000030: e051 52bd 7478 823d b223 ea3d 95b0 c63e
00000040: f4a6 bfbe b0e9 3dbf 2219 1a3f a4bd f0be
00000050: 6e28 33be 41ea 95be 0f97 023e 5ed4 0b3f
00000060: ca68 d3bd 6cca c7be ce62 fabe 65b1 f8bd
00000070: 26a6 3cbe 4e7e 5a3e d19e 923d c8ce b23d
00000080: 3920 a33e fa6f 73be c2a0 4abe 380a d7be
00000090: 785a 143f 7d2f f33e 3d7f 1ebe a8c6 37bf
000000a0: 24e9 163d 8fe0 8cbd 6438 423d fe1b 9c3e
000000b0: e79f 353e 9cdf b7be d448 87be 1153 943e
000000c0: f6ca 00bd 8b00 683e 68ed 273e 78a4 01bf
000000d0: 40ea 96be 7c6d c23e a21d ed3f dd8d 32bf
000000e0: ba39 3b3d 1969 bebf 8c7a 243f 8092 9c3e
000000f0: 57fe 4dbe deaf 4a3c e53d 64bf 8880 bb3e
00000100: 02ed 123e 7d25 803e f895 52bf 721a c83f
00000110: ff5d 1e3b 63a3 e43e d11b d3bf 06df 9f3e
00000120: 24fb 22bd dc86 38bf c86b 3dbd 914e cc3e
00000130: 75f1 95be 4a26 5cbb 5ddb babd f23f 613e
00000140: 7925 09be 31ab 97be 6476 7d3e 3a5a b7be
00000150: 5e0c 9a3e c99a 443d c5dc 553e 3ee4 85be
00000160: 0f74 143e 8507 2abf 73e3 ac3e 2f73 133d
00000170: b0f0 5c3e c5bc ecbd 3fd0 d3be 5578 8c3d
00000180: 6cb2 90be b51c 3f3e ffe2 e4be e4dc 15bf
00000190: 977f 403e 135f e93d ecc2 82bd db3c bf3c
000001a0: 25d4 cd3c adab d9bd 81c1 d1bd 4651 96be
000001b0: 878c 27bc 1634 d2be 77dd d1be b5a8 4bbe
000001c0: 2d53 3fbe be91 62be 782f 363d 07f5 133e
000001d0: b502 98bf cf11 57be 8b12 28be 4bc5 a13e
000001e0: b194 873d 0954 c43d f7ec 1e3d dcf4 b0be
000001f0: c98f e1be 4dc2 bdbd 30b6 aabe f512 c7bd
00000200: 7f62 50bf d338 d4bd 7ee0 413e e521 75be
00000210: ad2b 2dbf ba59 0ebf 1248 2fbe ac7c cf3e
00000220: 33a7 093f 1151 8fbe 7fe2 8f3d 42dd 693e
00000230: 99be 0bbe 2145 3dbf 89c3 83bf f2bf 3ebe
00000240: 0f29 883d 5a5c 29be 81e1 fa3e fb16 b23d
00000250: c7be 043e b3a9 1bbf 2b3d 073f 06e6 35bd
00000260: eaa6 0c3d 72e9 5b3e 2497 bcbd c79f b2be
00000270: 71b3 3d3f 5720 b5bd e78a 523e 2868 8f3e
00000280: 511c 03bf d035 7ebe 8471 2e3e 5cd8 af3e
00000290: 48dc 53bd d04c d13e 1d60 88bc 9b69 5fbe
000002a0: 9642 b33d 347c b5bd 29d5 adbe 1477 fe3d
000002b0: 7fc3 2e3e 1aad 0bbf ac58 8d3e 0962 b6be
000002c0: 8e5c 9bbe 5daf d83d fdaf 19be b950 0abf
000002d0: 6bdd debe 268c abbe 902d b63e fedc e83d
000002e0: 07f8 6abe 6889 cbbe 1e41 86be 2299 443f
000002f0: aaf5 abbc beac 043e 5c5e 23bf ec07 32be

actor.init_internal_node_embed.0.add_bias._bias f4 [32, 1]
-0.5212829 -0.048865788 0.04540179 0.048479527 0.1703244 -0.15005173 -0.0003226444 0.061167896
-0.10345761 0.05946249 0.0030935332 0.089465745 -0.005296954 0.0031135327 0.08640363 0.049041376
0.07405416 -0.37183604 -0.105012335 0.071026705 0.0785991 0.10495936 0.18880194 0.19566433
0.026746986 -0.038313497 -0.009243678 0.11097392 -0.32525352 0.06907187 0.011973884 0.03601456
00000000: cc72 05bf 7e27 48bd 3af7 393d 7892 463d
00000010: 8569 2e3e 29a7 19be 9928 a9b9 308b 7a3d
00000020: 95e1 d3bd f18e 733d e0bc 4a3b d139 b73d
00000030: 1292 adbb 690c 4c3b 63f4 b03d 9cdf 483d
00000040: b5a9 973d 4b61 bebe b510 d7bd 7376 913d
00000050: 91f8 a03d eff4 d63d 4c55 413e 3b5c 483e
00000060: 7f1c db3c 9dee 1cbd cc72 17bc 4b46 e33d
00000070: a187 a6be 8d75 8d3d 1c2e 443c 0184 133d

actor.init_internal_node_embed.2.module.weight f4 [64, 32]
0.12624183 0.18163277 0.15744376 0.16683781 0.0041513885 0.1335908 0.09083612 0.4994679
0.31622782 0.079635225 0.20714074 -0.022744274 0.04442226 -0.082499765 -0.3863403 0.22655627
-0.022725303 0.09073486 0.057831276 0.086644344 -0.10625953 0.013910675 0.34416413 0.14233345
0.089378655 -0.001883353 -0.17863044 0.005192574 0.0839538 -0.07914377 0.016244294 0.12588654
0.23644929 0.056890443 -0.39932513 0.6191466 0.45939663 0.27261314 0.0521737 0.38010216
0.20987912 0.30853218 0.3988174 0.27722457 0.25712016 0.009161033 -0.07438655 0.48832032
-0.17128994 -0.027960224 -0.16996516 -0.16983858 0.0781045 0.069939755 0.5338614 0.2180934
0.0578403 -0.12933809 0.20006229 0.30484295 0.046804827 0.018598372 -0.13915958 -0.18194704
-0.2564751 -0.03676285 0.4091707 -0.042997744 0.0063989824 0.02748272 0.081031926 0.14489482
-0.09511626 0.037038647 -0.19198275 -0.2052982 -0.10066036 0.12304381 0.29071996 -0.21015778
-0.04514634 0.20435756 0.037549853 -0.13669547 -0.029269492 0.24220319 -0.075024925 0.04489762
-0.030892339 -0.10154041 0.09914257 0.05472658 0.34248775 0.09573051 0.17960653 0.16555072
-0.08229561 -0.20158376 0.04432538 0.5361245 -0.56295204 -0.07825545 0.029828286 -0.0062358566
0.4077678 0.5739107 0.06390178 0.52183646 -0.43165728 0.01394722 -0.3105314 -0.09885362
0.0031578436 -0.32246417 0.07462508 0.01618966 -0.37411225 0.027212325 -0.39545956 -0.18047284
0.22116801 -0.095376134 0.21663907 -0.12634057 0.136259 0.03290638 -0.15232998 0.21079957
0.30542687 -0.092456855 -0.20814466 -0.048734743 -0.3156005 -0.05981342 -0.019976938 -0.4251635
-0.46092662 0.3911742 -0.3323836 0.110933065 -0.37192774 -0.22244051 -0.04557762 -0.3367067
-0.015638778 -0.05133972 -0.0124758305 -0.3610413 -0.2244803 -0.11035065 -0.37616792 -0.29884067
-0.10184907 0.1535095 0.45473272 0.06879813 -0.13862686 -0.19116054 0.15518819 -0.18543313
-0.14375636 -0.09508241 0.3462026 -0.7990224 0.42898887 -0.112115115 -0.074486606 -0.42922226
-0.13824955 -0.780168 0.68150336 -0.3596842 -0.29157332 -0.052553788 0.30114704 -0.27764064
0.17665957 0.089218214 0.036482003 0.07224765 -0.09163256 -0.029157192 0.448443 -0.098502085
0.2502064 0.18843435 0.16927716 0.26912272 -0.4421564 -0.046055403 0.26924813 0.216187
0.32808948 -0.0032160708 -0.23503886 0.4529715 0.13615039 -0.063992366 -0.18175244 0.5028287
0.067651816 0.6126832 -0.10468805 0.7167094 -0.4730179 -0.20431104 -0.15932094 -0.123788774
-0.06933354 -0.24542035 0.018593334 0.1333459 0.046704743 -0.33257604 -0.47115478 0.21816371
-0.34338242 -0.03171527 -0.15820847 -0.39934832 -0.24063942 0.051143687 -0.12764831 -0.24957214
-0.13114253 -0.112497374 -0.19590373 -0.114914246 0.28241572 -0.05505762 -0.12507163 0.22419068
0.1931628 -0.28380698 0.09864409 -0.39611083 0.0009065057 0.09926329 -0.10505504 -0.101367556
0.008465918 -0.33092192 0.17174658 0.020081963 -0.0666171 -0.24253877 0.29292426 -0.47300258
-0.010396922 0.13241658 0.081924014 0.18778986 0.09686888 0.21733807 0.20552586 -0.27657738
00000000: 8a45 013e f1fd 393e f038 213e 88d7 2a3e
00000010: 5f08 883b 07cc 083e 4a08 ba3d 42ba ff3e
00000020: 9de8 a13e cb17 a33d b41c 543e 3352 babc
00000030: 1ef4 353d a3f5 a8bd 65ce c5be 5efe 673e
00000040: 6a2a babc 33d3 b93d 7de0 6c3d 9772 b13d
00000050: 999e d9bd 9ae9 633c 4836 b03e dcbf 113e
00000060: 280c b73d d7da f6ba e6ea 36be 7826 aa3b
00000070: f8ef ab3d 2116 a2bd c112 853c 67e8 003e
00000080: c31f 723e f405 693d 5874 ccbe 6480 1e3f
00000090: 0936 eb3e f393 8b3e 17b4 553d c09c c23e
000000a0: 8dea 563e eef7 9d3e cb31 cc3e 61f0 8d3e
000000b0: 41a5 833e 2818 163c fa57 98bd 1f05 fa3e
000000c0: a166 2fbe d70c e5bc 590b 2ebe 2aea 2dbe
000000d0: 41f5 9f3d 933c 8f3d 24ab 083f e053 5f3e
000000e0: f3e9 6c3d 3471 04be 21dd 4c3e 6014 9c3e
000000f0: 6bb6 3f3d 9d5b 983c d97f 0ebe 5350 3abe
00000100: b450 83be a494 16bd d27e d13e 671e 30bd
00000110: 8eae d13b 7123 e13c 11f4 a53d 4f5f 143e
00000120: 50cc c2bd d6b5 173d 2097 44be b139 52be
00000130: 0527 cebd 65fe fb3d 3fd9 943e 9a33 57be
00000140: 5eeb 38bd 1c43 513e e0cd 193d e6f9 0bbe
00000150: 93c6 efbc 1d04 783e aba6 99bd 91e6 373d
00000160: ee11 fdbc 6bf4 cfbd 420b cb3d fa28 603d
00000170: 8e5a af3e 5c0e c43d c6ea 373e 2186 293e
00000180: 9a8a a8bd f96b 4ebe 888e 353d 753f 093f
00000190: a01d 10bf 6544 a0bd 735a f43c 2856 ccbb
000001a0: f1c6 d03e d0eb 123f f0de 823d 1397 053f
000001b0: 2f02 ddbe e182 643c f9fd 9ebe c473 cabd
000001c0: d3f3 4e3b 061a a5be 09d5 983d 2ea0 843c
000001d0: a48b bfbe 62ec de3c ad79 cabe dfcd 38be
000001e0: de79 623e 9054 c3bd a2d6 5d3e 6c5f 01be
000001f0: 7b87 0b3e d7c8 063d 64fc 1bbe d8db 573e
00000200: e960 9c3e 055a bdbd e023 55be 159e 47bd
00000210: 6496 a1be ebfe 74bd ada6 a3bc 08af d9be
00000220: 93fe ebbe fc47 c83e 2f2e aabe e030 e33d
00000230: 506d bebe 72c7 63be 99af 3abd d264 acbe
00000240: e51c 80bc 9949 52bd 6d67 4cbc 68da b8be
00000250: 2ade 65be 86ff e1bd 1599 c0be a501 99be
00000260: 3f96 d0bd 9831 1d3e bad2 e83e 09e6 8c3d
00000270: 33f4 0dbe 97bf 43be a7e9 1e3e 2fe2 3dbe
00000280: de34 13be 91ba c2bd 7841 b13e bb8c 4cbf
00000290: 6ea4 db3e 9c9c e5bd 6f8c 98bd 05c3 dbbe
000002a0: 4a91 0dbe 17b9 47bf 0177 2e3f 8728 b8be
000002b0: 1949 95be a442 57bd f22f 9a3e ea26 8ebe
000002c0: 3fe6 343e 0ab8 b63d 276e 153d 93f6 933d
000002d0: daa9 bbbd 10db eebc 529a e53e 76bb c9bd
000002e0: 0e1b 803e eff4 403e fe56 2d3e 74ca 893e
000002f0: 5362 e2be 97a4 3cbd e4da 893e 2060 5d3e
00000300: 58fb a73e b7c4 52bb 07ae 70be e1eb e73e
00000310: 026b 0b3e 6e0e 83bd 501d 3abe 62b9 003f
00000320: 098d 8a3d ced8 1c3f b066 d6bd 447a 373f
00000330: 672f f2be ea36 51be 0725 23be f884 fdbd
00000340: befe 8dbd 794f 7bbe 0c51 983c d48b 083e
00000350: 794d 3f3d 6847 aabe 333b f1be 4f66 5f3e
00000360: d2cf afbe dfe7 01bd 6701 22be 6277 ccbe
00000370: 2e6a 76be 0b7c 513d 3db6 02be d78f 7fbe
00000380: 3a4a 06be 0665 e6bd fd9a 48be 2958 ebbd
00000390: cb98 903e 1984 61bd c712 00be 3e92 653e
000003a0: 78cc 453e 264f 91be ea05 ca3d 0acf cabe
000003b0: 91a2 6d3a 8d4a cb3d 1927 d7bd cb99 cfbd
000003c0: a2b4 0a3c 996e a9be 56de 2f3e ee82 a43c
000003d0: 8c6e 88bd 155c 78be 2bfa 953e 652d f2be
000003e0: da57 2abc 3698 073e c7c7 a73d fc4b 403e
000003f0: 3163 c63d df8d 5e3e 5f75 523e 8d9b 8dbe

actor.init_internal_node_embed.2.add_bias._bias f4 [64, 1]
0.17899989 0.5041774 0.25392818 -0.5114725 -0.59904546 -0.09637182 -0.033079088 -0.010190855
0.038250927 0.5307696 -0.10865921 0.28707522 -0.43977946 0.5634024 0.11408511 0.17511865
0.17828521 0.34008005 -0.25024715 0.17647026 -0.041278984 0.15348652 0.0067650303 -0.2622374
0.45607743 -0.4393105 0.23458876 0.18344988 -0.25538504 0.20602241 0.19240616 -0.14072531
0.16731328 0.18170923 0.021125391 0.396445 0.41106325 0.19039537 0.3856081 0.11484871
-0.76402515 0.19487338 -0.429125 -0.5697847 0.09482151 -0.08560459 0.47632 0.4332128
0.18148804 -0.44755605 -0.23601294 -0.5326388 -0.12114699 -0.37797964 0.23914392 -0.13538563
-0.030061182 -0.30383694 -0.22115849 -0.06826986 -0.19155411 -0.0037714057 -0.16912796 0.3607917
00000000: bf4b 373e c511 013f e002 823e ddef 02bf
00000010: 0b5b 19bf 975e c5bd f07d 07bd 8bf7 26bc
00000020: 01ad 1c3d 84e0 073f b888 debd 86fb 923e
00000030: c62a e1be 243b 103f 74a5 e93d 4e52 333e
00000040: 6690 363e f91e ae3e 6520 80be 9fb4 343e
00000050: 2714 29bd 922b 1d3e 30ad dd3b fb43 86be
00000060: fb82 e93e 4eed e0be 0938 703e 49da 3b3e
00000070: d4c1 82be 8af7 523e 1f06 453e 4c1a 10be
00000080: 2c54 2b3e fc11 3a3e 280f ad3c d7fa ca3e
00000090: e276 d23e 01f7 423e 6d6e c53e cd35 eb3d
000000a0: 2797 43bf e38c 473e 46b6 dbbe 69dd 11bf
000000b0: c831 c23d 7651 afbd 37e0 f33e 11ce dd3e
000000c0: 00d8 393e 1126 e5be 60ad 71be 045b 08bf
000000d0: ea1b f8bd 8c86 c1be 25e2 743e 88a2 0abe
000000e0: de42 f6bc 8490 9bbe 5f77 62be 12d1 8bbd
000000f0: c326 44be b029 77bb e12f 2dbe b1b9 b83e

actor.init_leaf_node_embed.0.module.weight f4 [32, 8]
-0.043791372 -0.18020014 -0.4790651 -0.3230454 -0.10931037 0.22673278 0.49556488 0.2695876
-0.18271358 -0.28373024 0.07058737 0.0032631534 -0.31333792 0.16105889 -0.02207364 0.36473006
0.22007592 -0.34668458 -0.06621302 0.4339315 -0.02539341 -0.24330616 -0.056683548 -0.06744097
-0.35150537 -0.21858254 -0.20566581 -0.436983 0.41737682 0.03830414 0.45127538 0.1142057
-0.19280271 -0.5764987 0.32558587 0.13524255 0.45830587 0.15942532 -0.4986574 0.39125544
-0.102937564 0.17265011 -0.81668615 0.25344893 -0.37993044 0.26656574 -0.12240201 -0.25691637
-0.33586842 -0.20866656 -0.011089474 0.020601027 0.0981092 -0.34959224 -0.09980847 -0.10941604
0.22797868 -0.24283122 0.0068878075 0.7712884 -0.22694184 0.08474842 0.044950597 0.22534984
-0.14639352 -0.113441885 -0.36409795 0.6582605 0.33930007 0.26815805 0.4903748 0.3480151
-0.13226211 0.30299434 -0.2059748 0.2862774 0.013182731 -0.37919033 0.45240554 -0.29887235
-0.15506397 -0.15106569 0.110414766 0.08130358 0.8155396 -0.09498198 -0.19306478 0.021164851
-0.6800472 -0.15514718 0.25859 0.14085117 0.6533097 0.15251563 -0.0166643 -0.35791865
0.54355025 0.45221046 0.49061272 -0.4066265 -0.26349238 0.057821803 0.36708972 -0.11657934
0.018598074 0.30656633 0.6138476 -0.09341253 -0.40656868 -0.26772907 0.35581023 0.07625323
-0.3056216 0.6641635 0.113321066 0.8134195 -0.4573391 0.17996433 0.11389748 -0.07272469
0.50699246 0.02445617 -0.3115903 -0.550766 0.30493143 0.3365608 0.035715483 -0.304709
-0.03638436 0.06247659 -0.18186808 0.3544248 0.14975035 -0.24416578 -0.24215652 0.078401014
-0.15290944 0.31914234 0.017609406 0.15470305 -0.3455402 0.031750776 0.18544158 0.2879546
-0.38238394 0.008508928 -0.29911155 -0.309364 -0.35152602 0.3518188 0.04900679 0.11954334
-0.84198564 -0.42323318 -0.29665542 0.73233855 0.69737226 0.4720853 -0.0895742 0.10600801
-0.2136829 -0.16355 -0.4977062 -0.012939638 0.15786903 0.25916484 -0.14125684 -0.26208043
0.12109991 -0.092397645 0.20229907 -0.14942573 -0.006367613 -0.18077065 -0.19497034 0.05800787
-0.6390425 0.027098155 0.179193 0.6540815 0.46534508 -0.103965 0.11806066 0.13221462
-0.03455602 0.18444145 0.1990208 -0.31383997 0.13844635 0.019150173 -0.037020203 -0.062129177
0.12943842 0.19524789 0.3385645 0.17615768 0.094050765 0.045078676 -0.01717916 0.4939639
0.36076248 0.34953958 -0.41099462 -0.3659358 -0.06795233 0.0024795134 0.04682468 -0.29998067
0.29665497 -0.42407453 0.16476922 0.47967112 0.33338544 0.19239722 0.445215 -0.278283
0.05562022 -0.5746392 -0.7410987 -0.039422065 0.44960204 0.018176455 0.21698663 0.36417338
0.3418482 -0.14608465 -0.1400965 -0.071477816 0.015649207 -0.34705976 0.10222006 0.20314847
0.11809071 0.42986682 -0.04729674 -0.20295495 0.4112274 -0.05325024 -0.2170839 0.1649039
0.32418555 0.4871924 -0.5350463 -0.1904353 -0.24002016 -0.30477333 -0.035169113 0.456294
-0.015366701 0.767068 -0.4130792 0.117849074 -0.09628232 0.41507918 0.1721049 -0.0970797
00000000: 955e 33bd 6386 38be 0548 f5be 3566 a5be
00000010: 1ede dfbd a32c 683e aeba fd3e 6307 8a3e
00000020: 4519 3bbe 1745 91be 1c90 903d a1da 553b
00000030: d46d a0be 9fec 243e c7d3 b4bc e6bd ba3e
00000040: 955b 613e a480 b1be b19a 87bd 452c de3e
00000050: d705 d0bc 4025 79be 022d 68bd 7e1e 8abd
00000060: 83f8 b3be 1ad4 5fbe 0f9a 52be 3cbc dfbe
00000070: 6ab2 d53e cde4 1c3d 910d e73e aee4 e93d
00000080: 136e 45be 6b95 13bf 31b3 a63e 067d 0a3e
00000090: 11a7 ea3e 6440 233e 0650 ffbe a252 c83e
000000a0: eed0 d2bd 31cb 303e 5812 51bf 0fc4 813e
000000b0: 3e86 c2be 4e7b 883e e8ad fabd 8b8a 83be
000000c0: f2f6 abbe b0ac 55be a0b0 35bc 7cc3 a83c
000000d0: 7aed c83d c1fd b2be 6268 ccbd 8415 e0bd
000000e0: 3e73 693e bfa8 78be 1eb3 e13b 2873 453f
000000f0: 7163 68be 9490 ad3d 1e1e 383d 1cc2 663e
00000100: 2fe8 15be 3854 e8bd 0c6b babe c383 283f
00000110: bdb8 ad3e 034c 893e 6812 fb3e 092f b23e
00000120: b86f 07be 1322 9b3e 0feb 52be f492 923e
00000130: 62fc 573c 3c25 c2be b3a1 e73e cc05 99be
00000140: 17c9 1ebe f7b0 1abe 2321 e23d 7e82 a63d
00000150: 34c7 503f ea85 c2bd c6b2 45be e961 ad3c
00000160: 9317 2ebf e7de 1ebe e965 843e 4a3b 103e
00000170: 4e3f 273f 0f2d 1c3e 9283 88bc 1d41 b7be
00000180: 1c26 0b3f 2188 e73e 9731 fb3e 5931 d0be
00000190: 79e8 86be 8ed6 6c3d 2ff3 bb3e 26c1 eebd
000001a0: fd5a 983c 43f6 9c3e 1e25 1d3f 124f bfbd
000001b0: c529 d0be c913 89be c22c b63e a72a 9c3d
000001c0: 6f7a 9cbe 9e06 2a3f e014 e83d 433c 503f
000001d0: 5a28 eabe 9248 383e 1543 e93d aff0 94bd
000001e0: 42ca 013f 4e58 c83c c488 9fbe 00ff 0cbf
000001f0: f91f 9c3e b251 ac3e 664a 123d d102 9cbe
00000200: c407 15bd 74e7 7f3d a03b 3abe 2b77 b53e
00000210: 2858 193e 9806 7abe e1f7 77be b690 a03d
00000220: 4b94 1cbe a066 a33e 9a41 903c 7a6a 1e3e
00000230: a5ea b0be 1a0d 023d 66e4 3d3e c96e 933e
00000240: d4c7 c3be 0869 0b3c 2625 99be f564 9ebe
00000250: 38fb b3be 9821 b43e 58bb 483d 23d3 f43d
00000260: 5f8c 57bf 05b2 d8be 38e3 97be 8a7a 3b3f
00000270: fd86 323f 2ab5 f13e ae72 b7bd ba1a d93d
00000280: b1cf 5abe a779 27be 59d3 febe c700 54bc
00000290: 6ba8 213e 41b1 843e a2a5 10be 682f 86be
000002a0: 3b03 f83d fa3a bdbd 7d27 4f3e 0f03 19be
000002b0: 69a7 d0bb f11b 39be 4ea6 47be a999 6d3d
000002c0: 4a98 23bf f3fc dd3c 5f7e 373e e371 273f
000002d0: b641 ee3e 9aeb d4bd cac9 f13d 4563 073e
000002e0: 9d8a 0dbd 38de 3c3e 1ccc 4b3e a2af a0be
000002f0: e1c4 0d3e d3e0 9c3c 7fa2 17bd 2a7b 7ebd
00000300: 818b 043e 10ef 473e 5358 ad3e ae62 343e
00000310: b09d c03d 6ba4 383d 4fbb 8cbc d6e8 fc3e
00000320: dcb5 b83e daf6 b23e e36d d2be f05b bbbe
00000330: 972a 8bbd 557f 223b 3ccb 3f3d 1197 99be
00000340: 29e3 973e 4c20 d9be 43b9 283e 7497 f53e
00000350: 7fb1 aa3e c703 453e 38f3 e33e 1c7b 8ebe
00000360: 07d2 633d 8e1b 13bf a5b8 3dbf 0879 21bd
00000370: 3d32 e63e cae6 943c be31 5e3e ef74 ba3e
00000380: ba06 af3e 3797 15be 7575 0fbe f662 92bd
00000390: c432 803c d1b1 b1be c058 d13d 2706 503e
000003a0: 8bd9 f13d 8117 dc3e 3aba 41bd 6cd3 4fbe
000003b0: 668c d23e ec1c 5abd 3e4b 5ebe 91dc 283e
000003c0: a6fb a53e 4871 f93e cbf8 08bf 7901 43be
000003d0: d8c7 75be 400b 9cbe 7d0d 10bd 5e9f e93e
000003e0: 9ec4 7bbc 925e 443f 1e7f d3be db5a f13d
000003f0: aa2f c5bd 4285 d43e 443c 303e b9d1 c6bd

actor.init_leaf_node_embed.0.add_bias._bias f4 [32, 1]
-0.10372955 0.011670843 0.04757678 0.0034099326 -0.10317025 -0.13621396 -0.13638505 -0.17002235
0.21254042 -0.13530654 0.0042639077 -0.009463329 0.05530106 -0.0153173385 -0.0662619 -0.079953186
-0.24084394 -0.025130138 0.052134942 0.06932437 -0.060284328 -0.046791896 -0.0062552514 -0.0024159413
0.0127876885 0.0120431455 0.17230336 -0.016421476 -0.011527537 0.002995653 -0.08989882 -0.08835501
00000000: 2970 d4bd 1037 3f3c dfdf 423d 2d79 5f3b
00000010: ed4a d3bd ac7b 0bbe 86a8 0bbe 571a 2ebe
00000020: 32a4 593e cc8d 0abe 40b8 8b3b 140c 1bbc
00000030: 5d83 623d 93f5 7abc 52b4 87bd 7fbe a3bd
00000040: cb9f 76be b8dd cdbc 738b 553d eff9 8d3d
00000050: b3ec 76bd dca8 3fbd daf8 ccbb c554 1ebb
00000060: 7483 513c 9d50 453c 4b70 303e 5586 86bc
00000070: ffdd 3cbc b852 443b df1c b8bd 79f3 b4bd

actor.init_leaf_node_embed.2.module.weight f4 [64, 32]
0.016182926 0.178696 0.010207568 0.00044363772 -0.2900308 0.314865 0.28581282 -0.31937918
-0.28971037 0.085672244 0.01632327 -0.13488518 -0.12853323 -0.03369307 0.21993166 -0.089012235
-0.054375388 -0.08844461 0.44752717 0.071714796 0.12834536 -0.16414155 0.38052443 0.3343684
0.17708017 0.119856335 -0.09848649 0.13982528 -0.10141978 0.2320097 0.1897396 -0.09525563
-0.2904996 -0.061436836 -0.024954833 0.02661732 -0.32047763 0.04905802 -0.2436268 0.32260984
0.11065863 -0.27195072 -0.18771292 -0.36491275 0.009626039 0.4215375 -0.0012874911 -0.023845367
0.25585595 0.13569793 -0.08402364 -0.57704276 0.06113897 0.2560764 0.0723141 0.48142636
0.1724197 0.03720506 0.1545374 0.17170961 0.083618805 -0.03868204 0.25636926 -0.16035445
-0.279737 0.15658157 -0.023255367 -0.52361774 0.0113190655 -0.46327803 -0.109287046 -0.057943333
0.035533607 0.4190474 -0.028730173 -0.19063918 -0.21193473 -0.048139457 0.0651419 -0.08132219
-0.18061122 -0.16854405 0.09158481 -0.0038412835 -0.38427144 0.0504532 0.12319087 -0.053966198
0.0962167 0.11569389 0.11763904 -0.08276904 -0.17505793 -0.13237782 -0.48526007 -0.22015287
0.10308146 0.09019465 -0.33963436 0.42702886 -0.48812333 0.4136576 -0.15083642 0.11269177
-0.11012065 0.06003813 0.085559934 0.0147628235 0.22130015 -0.104932204 -0.2540653 0.048185054
-0.18545288 0.079361655 0.08027298 0.005621737 -0.038956925 -0.21950686 -0.10683173 0.3520769
0.034631234 -0.07483783 0.21625528 0.35150027 0.16892031 -0.11499538 -0.080218576 0.14003603
-0.14781177 -0.37921852 -0.3103091 0.08454384 0.021609029 -0.0038304573 -0.1942275 -0.14846675
-0.51452374 0.30832002 0.23771618 -0.01858616 0.27783296 0.3704187 -0.02944929 0.1642395
0.023017645 -0.08770188 -0.4641051 -0.0089698145 0.35610268 0.07628433 0.23034926 -0.09253791
0.04725932 0.0023894112 0.16792479 0.08674117 -0.093703434 -0.07401219 -0.0595433 0.005919092
0.049405582 0.34223226 -0.1502041 -0.2471236 0.16492417 -0.19032994 0.12973392 0.080206975
-0.29217672 -0.13687572 0.14520904 0.27677757 -0.076014996 -0.6511599 0.30048892 -0.780716
0.31541377 0.26107502 0.27243426 -0.0607427 -0.39073786 0.15681042 0.1258669 -0.326088
-0.372527 -0.15687212 -0.005695217 0.38251588 -0.062572196 -0.1849518 -0.11013673 -0.35781455
-0.31510103 -0.13024268 -0.29548094 -0.105310544 -0.060005967 0.056430694 -0.025541702 -0.04915858
-0.27671075 -0.066574626 -0.13203956 -0.17406972 0.47044575 0.66298205 -0.1398261 -0.028074022
-0.07772501 0.35558167 0.06630816 -0.11606648 0.41150007 -0.109444246 -0.33912998 0.33989012
0.21534817 0.26566666 -0.062891215 0.018957235 0.1376903 0.015394534 -0.24898352 0.105449006
0.3243514 0.5582374 -0.009245378 -0.20431398 -0.117789045 -0.45239624 0.1682019 0.088798575
-0.3080461 0.0045008487 0.16455501 -0.23782104 0.39458594 -0.29954204 -0.30186415 0.18180662
-0.14182092 -0.10092951 -0.17777677 -0.37671363 0.095181055 0.1690569 -0.0029322673 -0.2626318
0.19285002 -0.29100382 0.1607262 0.06504706 0.19636911 -0.17282985 0.1120223 -0.115181714
00000000: 0e92 843c 16fc 363e a53d 273c 0c98 e839
00000010: eb7e 94be fc35 a13e 0f56 923e ab85 a3be
00000020: eb54 94be ee74 af3d 61b8 853c 571f 0abe
00000030: 379e 03be bf01 0abd c435 613e 0c4c b6bd
00000040: bab8 5ebd 7322 b5bd 4822 e53e 35df 923d
00000050: f76c 033e b914 28be 19d4 c23e 5632 ab3e
00000060: 8154 353e 3d77 f53d 49b3 c9bd 5c2e 0f3e
00000070: 2cb5 cfbd f393 6d3e 194b 423e 6215 c3bd
00000080: 5dbc 94be 31a5 7bbd 146e ccbc 910c da3c
00000090: a515 a4be 10f1 483d 4e79 79be 1e2d a53e
000000a0: fea0 e23d 203d 8bbe d137 40be d8d5 babe
000000b0: 89b6 1d3c c3d3 d73e 08c1 a8ba 5c57 c3bc
000000c0: 8dff 823e 66f4 0a3e 9614 acbd 13b9 13bf
000000d0: db6c 7a3d 721c 833e 6a19 943d 847d f63e
000000e0: ca8e 303e 5564 183d 0d3f 1e3e a5d4 2f3e
000000f0: 5640 ab3d 0f71 1ebd d542 833e f533 24be
00000100: b039 8fbe eb56 203e 0a82 bebc d00b 06bf
00000110: 9a73 393c c732 edbe e3d1 dfbd fd55 6dbd
00000120: b08b 113d 618d d63e 8a5b ebbc eb36 43be
00000130: 6b05 59be e12d 45bd 1e69 853d 408c a6bd
00000140: 26f2 38be d096 2cbe d190 bb3d 0bbe 7bbb
00000150: 3abf c4be 04a8 4e3d 7f4b fc3d a90b 5dbd
00000160: 430d c53d ebf0 ec3d bdec f03d d082 a9bd
00000170: 6342 33be 0d8e 07be 0274 f8be c16f 61be
00000180: 5f1c d33d f9b7 b83d 8ee4 adbe 87a3 da3e
00000190: 4deb f9be eeca d33e dd74 1abe f1ca e63d
000001a0: ef86 e1bd 8bea 753d 0c3a af3d c5df 713c
000001b0: 829c 623e b2e6 d6bd d914 82be b15d 453d
000001c0: 5ce7 3dbe 5d88 a23d 2966 a43d 8c36 b83b
000001d0: 4c91 1fbd 68c6 60be 98ca dabd 6c43 b43e
000001e0: 7bd9 0d3d 9444 99bd 0672 5d3e d8f7 b33e
000001f0: 72f9 2c3e b382 ebbd a349 a4bd 9b65 0f3e
00000200: f85b 17be ee28 c2be d6e0 9ebe 5225 ad3d
00000210: 6b05 b13c 6908 7bbb 93e3 46be ab07 18be
00000220: d4b7 03bf 1fdc 9d3e df6b 733e 0142 98bc
00000230: 1f40 8e3e 85a7 bd3e a33f f1bc 662e 283e
00000240: 808f bc3c 0b9d b3bd 2f9f edbe 21f6 12bc
00000250: 1753 b63e f53a 9c3d ade0 6b3e 8484 bdbd
00000260: fd92 413d ab97 1c3b 7af4 2b3e 5ba5 b13d
00000270: 96e7 bfbd b493 97bd ade3 73bd f1f4 c13b
00000280: 825d 4a3d 1139 af3e 1bcf 19be f80d 7dbe
00000290: e2e1 283e dae5 42be f8d8 043e 8e43 a43d
000002a0: 3098 95be 2629 0cbe aeb1 143e cab5 8d3e
000002b0: c0ad 9bbd 6ab2 26bf afd9 993e 01dd 47bf
000002c0: ea7d a13e a0ab 853e 817c 8b3e 56cd 78bd
000002d0: cb0e c8be e992 203e 41e3 003e 02f5 a6be
000002e0: dcbb bebe 16a3 20be f19e babb 1fd9 c33e
000002f0: da25 80bd 0164 3dbe 5e8f e1bd 7833 b7be
00000300: ec54 a1be 565e 05be 4749 97be 0ead d7bd
00000310: d1c8 75bd df23 673d d53c d1bc 825a 49bd
00000320: 08ad 8dbe 4758 88bd 6135 07be 553f 32be
00000330: 44de f03e 31b9 293f 932e 0fbe 7efb e5bc
00000340: 4a2e 9fbd cd0e b63e 93cc 873d 43b4 edbd
00000350: 23b0 d23e 4e24 e0bd 72a2 adbe 1406 ae3e
00000360: 3b84 5c3e 7605 883e 1ccd 80bd 344c 9b3c
00000370: b0fe 0c3e 5b39 7c3c 89f5 7ebe a6f5 d73d
00000380: 6311 a63e a5e8 0e3f ed79 17bc af37 51be
00000390: 623b f1bd 7ba0 e7be 1e3d 2c3e 07dc b53d
000003a0: 38b8 9dbe db7b 933b 1c81 283e 5c87 73be
000003b0: 2b07 ca3e 935d 99be f08d 9abe 842b 3a3e
000003c0: 8139 11be 22b4 cebd 1d0b 36be 9ce0 c0be
000003d0: 49ee c23d 411d 2d3e 482b 40bb ad77 86be
000003e0: 7a7a 453e 74fe 94be 6995 243e 6537 853d
000003f0: fc14 493e 4ffa 30be f36b e53d 64e4 ebbd

actor.init_leaf_node_embed.2.add_bias._bias f4 [64, 1]
-0.13172857 -0.07239518 0.0037426932 0.06058394 0.07126452 0.03182356 -0.07072747 -0.065138906
-0.0017913796 -0.05138446 0.11935012 -0.07352965 -0.10442265 -0.17126808 -0.12318964 -0.033262584
-0.016204141 -0.023249662 -0.06568245 -0.0009403532 -0.014882143 -0.020425512 0.07529841 -0.022223243
-0.018471839 -0.06398064 0.0776631 0.17904182 -0.006556294 0.025535047 -0.07742178 -0.113253795
0.050330773 0.02376628 -0.017404469 -0.09383298 -0.10214302 0.04063882 0.1578202 0.15560013
-0.0056985966 0.031822003 0.049085487 0.038951796 0.0023468402 -0.04696382 -0.013035594 -0.026522037
-0.08144829 0.03762085 0.12156693 -0.01568129 0.0047227875 0.0655531 -0.17356136 0.056444608
-0.15993915 -0.002425296 0.073821396 -0.0809928 0.14292791 -0.019562209 0.017871672 0.06364722
00000000: dbe3 06be ed43 94bd f947 753b de26 783d
00000010: 22f3 913d 6c59 023d 90d9 90bd 8c67 85bd
00000020: bacc eaba 8378 52bd d66d f43d b796 96bd
00000030: 8bdb d5bd e660 2fbe da4a fcbd 593e 08bd
00000040: 8cbe 84bc 1376 bebc 8584 86bd 0982 76ba
00000050: 3bd4 73bc 6753 a7bc 0e36 9a3d 850d b6bc
00000060: 4152 97bc 4808 83bd d50d 9f3d bd56 373e
00000070: 2ed6 d6bb e02e d13c 4f8f 9ebd 9bf1 e7bd
00000080: a427 4e3d 80b1 c23c d193 8ebc 812b c0bd
00000090: 5c30 d1bd e474 263d 9e9b 213e a455 1f3e
000000a0: 4bbb babb ca57 023d dd0d 493d eb8b 1f3d
000000b0: 72cd 193b 225d 40bd 3e93 55bc be44 d9bc
000000c0: 5cce a6bd 5218 1a3d 15f8 f83d 0c76 80bc
000000d0: 9dc1 9a3b b440 863d 12ba 31be 7632 673d
000000e0: 17c7 23be b7f1 1ebb ac2f 973d 8edf a5bd
000000f0: b25b 123e ed40 a0bc 9d67 923c 7959 823d

actor.init_next_embed.0.module.weight f4 [32, 6]
0.012581641 -0.14783362 -0.298903 -0.5470313 -0.008022564 -0.2658352 0.011989256 -0.097654946
0.18683249 -0.15192042 -0.17358266 -0.19781321 -0.11402065 -0.26774636 -0.25778553 0.8843969
0.27164268 -0.09693174 0.1654642 0.036373127 -0.033101633 0.4963953 -0.46350095 -0.4556935
0.21784982 -0.4220224 -0.12407602 -0.35772637 -0.10105999 -0.11001573 0.018525999 -0.5772369
0.28352153 -0.348543 -0.03657599 0.24173725 -0.33056557 0.10291966 0.07097351 0.3083246
-0.082154185 -0.03756365 -0.10416826 0.098315746 0.14582331 0.17404212 -0.33561477 0.23006804
0.022646863 -0.5904613 0.24446185 1.4412103 0.6852592 0.15632097 0.10822685 -0.2922405
-0.1822739 0.046890546 -0.34987056 -0.45455682 -0.22851382 0.1820992 0.016121995 0.23666437
0.252724 -0.12686399 0.50576997 -0.02923424 -0.02162841 0.004429916 0.026428107 -0.36696434
-0.3510193 -0.032835543 0.14581443 0.0047811265 -0.2518688 -0.34388873 -0.06918467 0.009134303
0.12415754 -0.166091 -0.2017414 0.017603636 0.24568135 -0.22806235 -0.25601843 0.19431771
-0.6191086 -1.1803794 -0.01757846 -0.06358731 -0.2977097 1.2942469 0.015538572 1.3012717
-0.27495855 -0.034050748 -0.11244478 -0.1340231 -0.407211 0.10136056 0.57620686 -0.05052203
0.19700743 -0.109731846 0.020496944 0.06755872 -0.08162753 0.2881259 0.22860755 1.293991
0.6530473 0.43552795 0.5672459 0.2441345 -0.35871816 -0.75147337 -0.17434523 0.2217149
0.2872059 0.026163727 -0.036350578 -0.11443742 -0.22872813 0.24683124 -0.16891912 -0.2110019
-0.71826375 -0.021366328 0.04913043 -0.0948332 0.16451867 -0.1477266 -0.09739232 0.30571458
-0.24299386 0.21628225 0.024683535 -0.26592296 0.3308273 -0.21668735 0.27607727 -0.27639475
-0.008947434 -0.09954142 -0.18245748 1.5613958 0.63299924 -1.273229 0.21707082 0.28594753
-0.064332284 -0.14554098 -0.18740587 -0.43195656 -0.04658649 -0.32030162 0.18111196 1.0635017
0.8098676 0.42993847 -0.5027212 -0.38239774 -0.18877985 -0.23492111 0.22608572 -0.14324664
0.052833434 0.20565565 -0.01903344 -0.2520401 0.20460792 -0.2167262 -0.3992766 0.23072688
-0.3436722 -0.026417911 0.29882908 -0.013636912 -0.12860872 -0.25917542 0.29571468 0.89222336
0.21669146 0.76379204 0.007285393 -0.22645392 -0.47012034 0.81718296 0.19659904 -0.1243699
00000000: 3a23 4e3c b261 17be d009 99be 3e0a 0cbf
00000010: 1371 03bc 8d1b 88be 966e 443c 51ff c7bd
00000020: 0451 3f3e 0791 1bbe a7bf 31be 8c8f 4abe
00000030: a983 e9bd 0d16 89be 77fc 83be d667 623f
00000040: c014 8b3e 2684 c6bd 726f 293e fdfb 143d
00000050: 9495 07bd 8627 fe3e ff4f edbe a950 e9be
00000060: 0614 5f3e 5213 d8be 921b febd e927 b7be
00000070: 8af8 cebd ed4f e1bd d6c3 973c ccc5 13bf
00000080: bc29 913e 3a74 b2be b5d0 15bd f889 773e
00000090: e43f a9be 8bc7 d23d 8f5a 913d b9dc 9d3e
000000a0: 7440 a8bd 58dc 19bd 2b56 d5bd c459 c93d
000000b0: b552 153e 1938 323e b3d5 abbe f596 6b3e
000000c0: ea85 b93c 7928 17bf 3554 7a3e 9479 b83f
000000d0: 266d 2f3f 9b12 203e 0aa6 dd3d 8ca0 95be
000000e0: 02a6 3abe 4d10 403d 3c22 b3be acbb e8be
000000f0: 87ff 69be 3678 3a3e 4612 843c 2558 723e
00000100: 0a65 813e a2e8 01be 247a 013f a57c efbc
00000110: 102e b1bc d428 913b c27f d83c c0e2 bbbe
00000120: cdb8 b3be 907e 06bd 6150 153e ffaa 9c3b
00000130: f3f4 80be 2f12 b0be b1b0 8dbd 0ba8 153c
00000140: 4f46 fe3d c213 2abe 4c95 4ebe 8035 903c
00000150: e493 7b3e 2d89 69be d914 83be 39fb 463e
00000160: e77d 1ebf ac16 97bf b400 90bc 103a 82bd
00000170: 686d 98be e2a9 a53f 7f95 7e3c 1290 a63f
00000180: 5ec7 8cbe cc78 0bbd 7349 e6bd 5a3d 09be
00000190: f67d d0be 2096 cf3d 4b82 133f 30f0 4ebd
000001a0: 51bc 493e 17bb e0bd 35e9 a73c 3a5c 8a3d
000001b0: 562c a7bd 3d85 933e 1918 6a3e 7fa1 a53f
000001c0: 1c2e 273f 85fd de3e 0737 113f 65fe 793e
000001d0: e8a9 b7be 8f60 40bf 8e87 32be 3b09 633e
000001e0: a70c 933e 5055 d63c 58e4 14bd 2b5e eabd
000001f0: b537 6abe 54c1 7c3e 22f9 2cbe e210 58be
00000200: 22e0 37bf 7008 afbc fd3c 493d e937 c2bd
00000210: 9577 283e a445 17be a075 c7bd 9f86 9c3e
00000220: 62d3 78be 1879 5d3e 2035 ca3c 0e27 88be
00000230: 3262 a93e 4ae3 5dbe 005a 8d3e 9d83 8dbe
00000240: 4298 12bc 5fdc cbbd 22d6 3abe d1db c73f
00000250: 3d0c 223f 2bf9 a2bf d047 5e3e b767 923e
00000260: a5c0 83bd b208 15be 53e7 3fbe 6929 ddbe
00000270: 7ad1 3ebd 93fe a3be 6a75 393e d320 883f
00000280: 7c53 4f3f e520 dc3e 56b2 00bf a3c9 c3be
00000290: 814f 41be 298f 70be 0483 673e 3faf 12be
000002a0: df67 583d 6597 523e 04ec 9bbc 660b 81be
000002b0: bd84 513e 79ed 5dbe fc6d ccbe ab43 6c3e
000002c0: cdf5 afbe 606a d8bc 2000 993e 5b6d 5fbc
000002d0: 01b2 03be a4b2 84be ea67 973e c068 643f
000002e0: 5ee4 5d3e e087 433f 4eba ee3b 89e3 67be
000002f0: 9db3 f0be e732 513f 4251 493e a5b5 febd

actor.init_next_embed.0.add_bias._bias f4 [32, 1]
-0.061432593 0.001918192 -0.1716387 -0.07976687 -0.006157607 -0.15580082 -0.058119953 -0.11589553
0.1061506 -0.014721208 -0.11298472 -0.01587662 -0.048961826 -0.08313586 0.26470834 -0.48382923
-0.1540373 -0.07297504 -0.012699414 -0.13695337 -0.09464036 -0.04973697 -0.1868398 -0.115295924
0.2953471 -0.056652762 -0.22644396 -0.033588145 -0.090302676 -0.08369504 -0.16967711 -0.14545633
00000000: bea0 7bbd d86b fb3a 0ec2 2fbe d05c a3bd
00000010: c0c5 c9bb 408a 1fbe 300f 6ebd a35a edbd
00000020: 7c65 d93d 3931 71bc 8864 e7bd af0f 82bc
00000030: 328c 48bd 2243 aabd da87 873e 77b8 f7be
00000040: f4bb 1dbe f073 95bd 3411 50bc 813d 0cbe
00000050: ced2 c1bd feb8 4bbd ef52 3fbe 4520 ecbd
00000060: bc37 973e ba0c 68bd ede0 67be b993 09bd
00000070: 9cf0 b8bd 4e68 abbd d6bf 2dbe 81f2 14be

actor.init_next_embed.2.module.weight f4 [64, 32]
0.06805751 -0.10133124 0.18707128 0.17855963 0.056163665 -0.040448677 -0.17436074 -0.30324003
-0.60868794 0.3093927 0.15294759 0.08296681 0.087505884 0.12142296 0.38513166 -0.511184
-0.16476218 0.15203309 -0.37852487 -0.10639063 0.026834665 0.2323837 -0.48116854 -0.055427775
-0.36571616 0.33486432 -0.5123261 -0.104211874 0.23627993 -0.24457696 -0.12110629 -0.25536227
0.2875326 -0.050701153 -0.01259564 -0.0898514 -0.10004539 -0.084692664 -0.025330653 -0.03279166
-0.17849915 0.03935308 0.44732323 0.23876931 -0.021861533 0.12740271 0.18236846 -0.3599253
0.1669428 0.0012642753 -0.22600864 0.121985026 0.19553882 0.060654655 0.00016325909 0.00964085
-0.004208148 0.23946153 -0.20612265 -0.32899112 0.025160164 0.3164532 -0.4174165 0.0684975
0.035119954 0.03995261 -0.08198169 -0.16125761 0.0057337345 0.071621366 -0.13448235 -0.36492866
0.26713815 -0.1359728 0.11185071 -0.049488667 0.09311536 -0.105568364 -0.15846328 0.28440458
-0.2398719 -0.030747047 0.24194756 0.05458361 -0.12061776 0.060192652 -0.07804609 -0.06936327
0.017591517 0.11349549 -0.110471055 -0.17400531 -0.29939485 -0.16740151 -0.35001692 -0.32283643
0.08954429 0.15674412 0.2636908 -0.07874211 -0.34821486 -0.08723831 0.14396036 0.10644333
0.33258274 0.23967184 -0.32033515 -0.07490965 0.11248446 0.20866466 0.069842435 -0.12762593
-0.16223812 0.11169179 0.037514202 0.013162297 -0.05307963 0.009683726 0.13330574 -0.058847327
0.028397132 -0.46394867 -0.015451331 -0.32042336 0.041227028 0.089793496 -0.018292272 0.10613676
-0.15607648 -0.3880683 -0.07300282 0.2571453 0.15026666 -0.10915749 -0.021567022 -0.06245593
0.035355084 -0.12064784 -0.2545044 0.18014142 -0.028327277 -0.06239052 0.6076112 -0.20417985
0.1704532 0.19560368 -0.009676904 0.20565939 -0.17008471 0.0865998 0.18574433 -0.04416574
-0.3506268 -0.105811246 0.23885517 0.21393971 0.03241045 -0.017754208 -0.24105775 0.09996192
-0.116452485 -0.005284036 -0.2007006 -0.11905964 0.43356276 0.17210165 0.10796762 0.19535315
-0.1669895 0.22077319 0.0899441 -0.036319874 0.04572596 0.23582612 0.14845884 0.25374612
-0.02709573 0.18879911 -0.0015927263 0.053004768 0.037905853 -0.109649315 0.2575461 0.10387734
-0.5089636 -0.08649227 -0.026019745 0.34967262 -0.14479752 -0.0018012888 0.19660567 -0.33257982
0.038735714 0.1521776 -0.019168692 0.19437538 -0.014588142 0.07481921 0.05824389 -0.29612586
0.23131555 0.22953688 0.09143142 -0.052657586 0.034209378 0.07672065 0.20148306 -0.4326547
-0.01870409 0.20978981 -0.41904595 0.1018187 0.199405 -0.26061302 0.11663784 0.3633777
0.11352314 0.08560549 -0.018703727 -0.2127746 -0.2622731 0.024771905 0.10954699 -0.16029327
0.0058711497 0.026317317 0.4430197 0.028463311 0.14137794 -0.31986868 -0.22627875 -0.13616173
0.6030159 -0.025643436 0.3412016 -0.08437867 0.10506832 0.4809606 -0.012879717 0.7456047
0.07755766 0.20894527 0.7866902 -0.47091812 -0.34603304 -0.2946787 -0.23413686 0.008584679
0.32625395 0.0346112 0.51889026 -0.08564713 -0.090835854 0.19215992 0.24298899 0.56835556
00000000: bc61 8b3d c186 cfbd 9d8f 3f3e 56d8 363e
00000010: df0b 663d 83ad 25bd 9f8b 32be 4742 9bbe
00000020: f9d2 1bbf b868 9e3e 4b9e 1c3e 81ea a93d
00000030: 4936 b33d 9aac f83d fa2f c53e f4dc 02bf
00000040: 6bb7 28be 90ae 1b3e 03ce c1be 55e3 d9bd
00000050: 5fd4 db3c fef5 6d3e b95b f6be 3c08 63bd
00000060: 263f bbbe 5673 ab3e ce27 03bf 096d d5bd
00000070: 5ef3 713e 6272 7abe 9306 f8bd d8be 82be
00000080: 7937 933e 03ac 4fbd f15d 4ebc 0304 b8bd
00000090: 99e4 ccbd 5973 adbd 3b82 cfbc 8c50 06bd
000000a0: 7bc8 36be b230 213d 8d07 e53e f17f 743e
000000b0: f516 b3bc db75 023e ccbe 3a3e 2148 b8be
000000c0: 0ef3 2a3e 0ab6 a53a cf6e 67be 49d3 f93d
000000d0: 543b 483e 0471 783d 8730 2b39 a8f4 1d3c
000000e0: 81e4 89bb 6735 753e d111 53be 8671 a8be
000000f0: b01c ce3c 2706 a23e 9eb7 d5be 6b48 8c3d
00000100: f1d9 0f3d 59a5 233d 04e6 a7bd b720 25be
00000110: 0de2 bb3b 39ae 923d beb5 09be eed7 babe
00000120: 55c6 883e 743c 0bbe fc11 e53d a1b4 4abd
00000130: 44b3 be3d 3a34 d8bd 3344 22be 7a9d 913e
00000140: fba0 75be 3be1 fbbc 1ac1 773e 1093 5f3d
00000150: 7206 f7bd 928c 763d a1d6 9fbd 550e 8ebd
00000160: 161c 903c 5370 e83d a63e e2bd 732e 32be
00000170: 484a 99be 4d6b 2bbe 6b35 b3be d14a a5be
00000180: ff62 b73d 8881 203e 7b02 873e 8b43 a1bd
00000190: 3849 b2be 00aa b2bd 586a 133e f6fe d93d
000001a0: 4948 aa3e 896c 753e f802 a4be 3b6a 99bd
000001b0: 415e e63d 30ac 553e 8d09 8f3d 5fb0 02be
000001c0: c021 26be aabe e43d 7ea8 193d ada6 573c
000001d0: 076a 59bd 7ea8 1e3c 4d81 083e e509 71bd
000001e0: 1aa1 e83c ae8a edbe 9427 7dbc 880e a4be
000001f0: acdd 283d a7e5 b73d add9 95bc 3b5e d93d
00000200: 83d2 1fbe e3b0 c6be 8182 95bd 8ca8 833e
00000210: 81df 193e f68d dfbd 53ad b0bc cad1 7fbd
00000220: 7ed0 103d 3716 f7bd 674e 82be fe76 383e
00000230: 9b0e e8bc 348d 7fbd 688c 1b3f 8614 51be
00000240: 498b 2e3e 554c 483e e18b 1ebc 6098 523e
00000250: b02a 2ebe 3c5b b13d c333 3e3e 23e7 34bd
00000260: 5b85 b3be 91b3 d8bd 7396 743e 0313 5b3e
00000270: d2c0 043d 4671 91bc d8d7 76be d6b8 cc3d
00000280: a47e eebd b525 adbb 7584 4dbe 8ad5 f3bd
00000290: f0fb dd3e 6a3b 303e 211e dd3d a80a 483e
000002a0: 4cff 2abe 5e12 623e 9d34 b83d 26c4 14bd
000002b0: 254b 3b3d 677c 713e 9805 183e 03eb 813e
000002c0: ddf7 ddbc 8e54 413e 07c3 d0ba 871b 593d
000002d0: 2b43 1b3d d28f e0bd 15dd 833e a5bd d43d
000002e0: 704b 02bf dc22 b1bd 5c27 d5bc 4a08 b33e
000002f0: cd45 14be 3919 ecba ff52 493e e747 aabe
00000300: 57a9 1e3d 72d4 1b3e a907 9dbc 570a 473e
00000310: 1a03 6fbc d03a 993d 2591 6e3d cf9d 97be
00000320: fcdd 6c3e b70b 6b3e 6540 bb3d 7baf 57bd
00000330: 221f 0c3d b71f 9d3d 9351 4e3e eb84 ddbe
00000340: 5239 99bc 24d3 563e 318d d6be 5386 d03d
00000350: d330 4c3e 126f 85be d2df ee3d a40c ba3e
00000360: d27e e83d ee51 af3d 8f38 99bc 96e1 59be
00000370: a948 86be 73ee ca3c 2c5a e03d eb23 24be
00000380: c662 c03b 6a97 d73c 7ad3 e23e e42b e93c
00000390: 61c5 103e d4c5 a3be 9eb5 67be fb6d 0bbe
000003a0: 405f 1a3f 2f12 d2bc fab1 ae3e b9ce acbd
000003b0: 0f2e d73d 7840 f63e 7305 53bc f3df 3e3f
000003c0: 8dd6 9e3d c0f5 553e 8764 493f 2e1c f1be
000003d0: 3e2b b1be 20e0 96be 93c1 6fbe c1a6 0c3c
000003e0: c20a a73e 79c4 0d3d fed5 043f c367 afbd
000003f0: 2608 babd 92c5 443e 1bd2 783e c07f 113f

actor.init_next_embed.2.add_bias._bias f4 [64, 1]
0.09080827 0.3761795 0.08086325 -0.11649541 0.59478843 -0.99678737 0.7877081 -0.4049105
0.37673625 0.004346348 -1.0502648 -0.111225076 0.4747684 -0.008395141 0.9481305 0.3332158
-0.39369744 -0.94901973 -1.419838 0.19319862 0.022495858 0.62235177 1.0410933 0.26249784
0.6000561 -0.31000677 -0.6137663 -0.5926606 0.8688685 -0.5156266 0.08519495 0.33911657
-0.21365759 0.36571762 -0.08168906 0.0686526 0.30480343 0.043116 -1.0279361 -0.4407838
0.59341234 -0.28810367 0.5209474 0.83492184 -0.049324267 -0.44542697 -0.717985 -0.5676744
0.57246804 1.337705 0.9497279 0.9780409 -0.2576991 0.5758912 -0.2962708 0.78246933
-0.86582005 0.29348028 -0.9155961 -0.00030793797 -0.75865585 -0.5590391 0.78031915 -0.40663052
00000000: b0f9 b93d 999a c03e a29b a53d 2595 eebd
00000010: 0e44 183f 752d 7fbf 3da7 493f 6e50 cfbe
00000020: 93e3 c03e cf6b 8e3b 146f 86bf f9c9 e3bd
00000030: d814 f33e c68b 09bc aeb8 723f 439b aa3e
00000040: b692 c9be f5f2 72bf 40bd b5bf dcd5 453e
00000050: 3c49 b83c 7252 1f3f 8c42 853f 1e66 863e
00000060: 479d 193f 35b9 9ebe ca1f 1dbf 9bb8 17bf
00000070: 2b6e 5e3f 1b00 04bf b17a ae3d b0a0 ad3e
00000080: 0ec9 5abe 573f bb3e 984c a7bd bc99 8c3d
00000090: 320f 9c3e 679a 303d 6993 83bf 6aae e1be
000000a0: dfe9 173f 5382 93be cf5c 053f 70bd 553f
000000b0: 3e08 4abd 010f e4be ddcd 37bf 1c53 11bf
000000c0: 448d 123f eb39 ab3f 5e21 733f e360 7a3f
000000d0: 23f1 83be 9b6d 133f ceb0 97be e94f 483f
000000e0: 62a6 5dbf 0c43 963e 8264 6abf bc72 a1b9
000000f0: 4537 42bf 301d 0fbf ffc2 473f e031 d0be

actor.embedder.layers.0.0.module.W_query.weight f4 [64, 64]
0.026281575 -0.07947882 0.13290265 -0.188392 -0.027395455 -0.052218195 -0.11701289 0.00055859884
0.1315552 -0.13229822 0.08824343 0.0020272704 0.053170696 0.116875 -0.05950289 0.042737704
0.114433445 -0.0031212522 -0.0013655659 0.110333174 0.03340972 -0.025021123 0.111395165 0.15250216
-0.17175084 0.17890088 0.0061648376 -0.016718794 0.113583535 0.060434546 -0.029185131 0.09007754
0.0883167 -0.008064656 -0.08066116 0.045688275 0.010938736 0.10682567 0.08361562 -0.10821891
0.03154811 0.0060073407 -0.08360129 0.053652287 -0.1270798 -0.13066263 0.1066299 -0.13795006
-0.03889105 -0.0026790584 0.0041768397 -0.07990264 0.014932346 0.14055991 -0.012170998 0.025006352
0.12745403 -0.05702613 0.07147686 -0.117511444 0.0007160371 0.039499342 -0.12750578 -0.007881252
-0.13193925 -0.03592087 -0.05847914 -0.09343956 -0.012916499 0.028675746 0.017715147 0.092940114
0.07922808 -0.058034245 -0.07553054 -0.09547197 0.0748606 0.018998126 0.08286487 -0.15219098
0.00078655843 0.07207798 0.09368102 0.114814304 -0.024735035 0.056183603 -0.08916424 -0.039432794
-0.15855585 -0.077202104 0.09764832 -0.038458172 0.053642012 -0.033639953 0.10819327 -0.05708164
-0.058061562 -0.11290798 0.040491115 0.013053527 0.021824783 -0.13922316 -0.123198204 -0.123705454
-0.10251612 -0.0199244 -0.067386895 0.000505157 0.046359904 -0.12795122 -0.10070756 0.064494394
-0.08800638 -0.092173666 -0.027183164 -0.14638944 -0.026856031 0.0073026945 -0.0405814 -0.12563723
0.021484591 0.08049797 -0.04194094 0.12297604 -0.057263367 -0.0105321705 -0.077414215 0.06687741
-0.12012812 0.0822166 0.032223612 0.067606695 0.15889876 0.058480844 -0.08436679 0.061685883
-0.08778968 0.049728412 -0.024682846 -0.032720774 0.030697128 0.08249757 0.06983299 0.11403479
0.057100028 0.06708691 0.13678467 0.027936814 0.04730478 0.060540415 -0.06731836 -0.09017599
0.03457772 -0.067389816 0.005582161 -0.033320785 -0.036250554 0.009594269 -0.021912191 0.040526934
0.013009865 -0.053250015 0.018666439 0.016587527 0.117715396 0.04220096 -0.03572998 7.991908e-05
0.10070813 0.0009634035 0.042432822 0.03867703 -0.00042095166 -0.10751449 0.052265164 0.080503926
-0.038234048 -0.09370723 0.009789231 0.06629205 -0.051794272 0.027256237 -0.045409232 0.010436255
0.013153082 0.07898796 0.080903225 0.022130478 -0.102479346 -0.0782264 -0.050147403 -0.07440232
-0.05553254 -0.04694396 -0.041755147 0.11525928 0.13688573 0.14193587 -0.015938723 -0.06602692
-0.08562185 0.08048721 -0.069232106 -0.08083644 -0.11510788 0.009961574 0.066200666 0.0063680117
-0.009617962 -0.06566243 0.108310685 -0.04110218 -0.11191689 -0.0028554758 0.043447185 -0.09931996
0.15396073 0.08168398 -0.05407168 0.09329442 0.050838392 -0.054916605 0.104643986 0.0011963758
0.040592864 -0.09662291 -0.061638836 0.055348605 -0.17282335 0.007098656 0.041183446 0.034802027
-0.14668308 0.09792225 0.096784815 -0.04462979 0.1293512 -0.07321024 0.065202594 -0.098218
-0.09592302 -0.06336259 0.007432841 -0.040802237 0.06728381 0.12349612 0.07094622 -0.0565655
0.13800004 -0.0696935 0.026240597 0.050409336 -0.06279292 -0.1001632 0.02994707 -0.10738127
00000000: 754c d73c cbc5 a2bd a217 083e d5e9 40be
00000010: 6f6c e0bc bfe2 55bd 74a4 efbd ef6e 123a
00000020: 68b6 063e 2f79 07be f9b8 b43d f4db 043b
00000030: 84c9 593d 295c ef3d 4db9 73bd bb0d 2f3d
00000040: 155c ea3d ec8d 4cbb cafc b2ba 5cf6 e13d
00000050: a1d8 083d 19f9 ccbc 2623 e43d 8729 1c3e
00000060: 74df 2fbe cb31 373e 6802 ca3b daf5 88bc
00000070: 7c9e e83d 378a 773d a815 efbc 937a b83d
00000080: 63df b43d 9e21 04bc ae31 a5bd a123 3b3d
00000090: 6238 333c 6bc7 da3d ab3e ab3d e0a1 ddbd
000000a0: 9738 013d 3ad9 c43b 2737 abbd 80c2 5b3d
000000b0: 3521 02be 6dcc 05be c760 da3d c842 0dbe
000000c0: 394c 1fbd 2493 2fbb dfdd 883b ffa3 a3bd
000000d0: cca6 743c f0ee 0f3e de68 47bc 1fda cc3c
000000e0: 4f83 023e 3b94 69bd 7662 923d d7a9 f0bd
000000f0: 70b4 3b3a 10ca 213d e090 02be 5e20 01bc
00000100: 151b 07be c321 13bd d387 6fbd 3d5d bfbd
00000110: b99f 53bc 66e9 ea3c 5b1f 913c 6357 be3d
00000120: 5542 a23d 51b5 6dbd c1af 9abd cf86 c3bd
00000130: 8450 993d f5a1 9b3c 0fb5 a93d f4d7 1bbe
00000140: 0b31 4e3a 9f9d 933d d6db bf3d c323 eb3d
00000150: 21a1 cabc c720 663d be9b b6bd 4884 21bd
00000160: 775c 22be 231c 9ebd d8fb c73d 5186 1dbd
00000170: bab7 5b3d 0cca 09bd 6f94 dd3d 70ce 69bd
00000180: f6d1 6dbd 4d3c e7bd 03da 253d 76de 553c
00000190: e3c9 b23c 8490 0ebe 574f fcbd 4959 fdbd
000001a0: f9f3 d1bd 7f38 a3bc 2402 8abd 836c 043a
000001b0: e2e3 3d3d a505 03be c43f cebd a315 843d
000001c0: b03c b4bd 8cc5 bcbd 3aaf debc 1de7 15be
000001d0: 2e01 dcbc 714b ef3b af38 26bd 0ca7 00be
000001e0: 7400 b03c 1fdc a43d 43ca 2bbd ddda fb3d
000001f0: fe8c 6abd 208f 2cbc 588b 9ebd 06f7 883d
00000200: bb05 f6bd 2d61 a83d e8fc 033d 6175 8a3d
00000210: 5bb6 223e 9c89 6f3d 7fc8 acbd 56aa 7c3d
00000220: 13cb b3bd 05b0 4b3d ae33 cabc 3806 06bd
00000230: 8b78 fb3c 7cf4 a83d 9904 8f3d 128b e93d
00000240: b8e1 693d dd64 893d 4811 0c3e bfdb e43c
00000250: a8c2 413d 3af9 773d 35de 89bd 30ae b8bd
00000260: 5ea1 0d3d ac03 8abd 8fea b63b 607b 08bd
00000270: 767b 14bd 4831 1d3c 3281 b3bc 92ff 253d
00000280: 5427 553c b01c 5abd 5cea 983c 91e2 873c
00000290: c514 f13d eada 2c3d 9959 12bd 3b9a a738
000002a0: 1040 ce3d ea8c 7c3a 0ace 2d3d ce6b 1e3d
000002b0: 2db3 dcb9 8f30 dcbd ff13 563d 3edf a43d
000002c0: 4e9b 1cbd 94e9 bfbd 0363 203c 20c4 873d
000002d0: 3b26 54bd 7948 df3c 08ff 39bd d3fc 2a3c
000002e0: 0680 573c 71c4 a13d 97b0 a53d fa4a b53c
000002f0: b1e0 d1bd 2a35 a0bd 5d67 4dbd 3e60 98bd
00000300: 1776 63bd 4f48 40bd 7207 2bbd 0f0d ec3d
00000310: c62b 0c3e a357 113e ed91 82bc 1f39 87bd
00000320: 825a afbd 7ad6 a43d 90c9 8dbd 938d a5bd
00000330: aebd ebbd df35 233c 3794 873d c1aa d03b
00000340: a894 1dbc 067a 86bd fed1 dd3d c25a 28bd
00000350: af34 e5bd ef22 3bbb adf5 313d 4368 cbbd
00000360: e2a7 1d3e ee49 a73d 447a 5dbd 2511 bf3d
00000370: eb3b 503d 3cf0 60bd 964f d63d b6cf 9c3a
00000380: b444 263d 3be2 c5bd 0179 7cbd 38b5 623d
00000390: 9bf8 30be d89b e83b f9af 283d 928c 0e3d
000003a0: 1734 16be 768b c83d 1e37 c63d bacd 36bd
000003b0: a474 043e 40ef 95bd f088 853d 8526 c9bd
000003c0: 4a73 c4bd 3fc4 81bd 318f f33b 3f20 27bd
000003d0: 18cc 893d 89eb fc3d 404c 913d 3ab1 67bd
000003e0: e24f 0d3e 77bb 8ebd 85f6 d63c 057a 4e3d
000003f0: 9399 80bd 5d22 cdbd 8f53 f53c b6ea dbbd
