example_data/o3dbpp_pct/PCT_euro-pallet_3200updates.pt (torch, 236314 bytes, 24 tensors)

actor.init_internal_node_embed.0.module.weight f4 [32, 6]
00000000: 557e f2bd a1bc 8d3b 7cf7 b3be 759a 54be
00000010: 8bcd 09bf 020f 4bbd e4f5 c8bd 8980 7d3e
00000020: d1c1 73be 748e 4ebe de21 83be 8017 8dbe
00000030: cc7e 6cbc 8a91 463e 8f56 6b3e 6293 133d
00000040: 5434 3cbc 619a 86be b6f3 853e d170 7ebe
00000050: 585b b73d e8c7 ce3d e99d 463e edc3 283d
00000060: f2f1 ec3d 1c99 60be b955 85be eb92 9f3d
00000070: 8d31 8c3e e11d 4a3e fd72 ad3c 1b68 093e
00000080: 49ff 4f3e 835b 48be b348 cbbd b5a1 dbbe
00000090: 9718 d33e f6f3 c73e 87d7 9bbe c5b5 39bf
000000a0: ce86 c83d b11c 913d 24f6 fdbd 1701 26be
000000b0: c4d6 733e 29d3 31bc b7f8 953e 9e0d d13e
000000c0: af1e 72be bd1a 923e 23e9 263e 0398 d6bd
000000d0: 1c94 c23c 781f d13e adb5 1b3f 02c2 b0be
000000e0: 4e19 923e d986 59bd 524b 383d 3353 42bd
000000f0: 0b26 99be 6223 8bbd e5c6 33bd e750 c63e
00000100: 42f3 bdbd 180e cebd ba8c f3bd bbdb 033f
00000110: 762a 5bbe ed17 243f 1c3c b2be efa2 c23d
00000120: e692 7c3e a5eb 05bf 4bdf 74be e38a 0d3f
00000130: e2ed aabe e7bd 3e3c 8834 41bc 4a6e 57bd
00000140: 1838 7fbe b0cd 7abe 4dc5 0b3e 125b e8be
00000150: fbb5 0b3f 3c99 c73d a7fd 82be e90a 4d3e
00000160: a94b 953d 9155 d7be 402a 103f 5072 f53d
00000170: 6f1b 12be 20d2 7a3e 3344 40be a883 01be
00000180: 78f2 92be 8396 f0be ef64 c7be 2862 61bd
00000190: f599 51bc d9cf 4ebe 8087 90bd 9f0e dfbc
000001a0: df30 c63b d3e1 2abe 80ef 45be b81f 88be
000001b0: eb9b 99bc d1b5 ccbe c9f4 b3be e835 4cbe
000001c0: 7eb8 36be 40c3 2dbe 8518 133e 6a9e 87bd
000001d0: a52d 16bf 865b 903d 5c67 813e 69bf 10bb
000001e0: ffb6 c43d 35d5 9bbe 5e23 be3e ecba d4be
000001f0: 9e5c 10bf 614a 083f 59fe 09be d336 293b
00000200: 7505 21bf 3f33 0e3f cc1f 0c3f 0d0d 353e
00000210: 5141 e3be fcd3 9cbd 9e39 80bf 8f2e ea3e
00000220: d579 573f 1352 7ebc cb3a 81bd 7c0b 073e
00000230: 7aba 85be 1828 64be 709f 02bf e4c4 8ebe
00000240: 9023 533c 9ea6 9fbd f896 e83d dc40 153d
00000250: aa19 303e db32 063c 751a 7b3e 9ecd 443d
00000260: ee45 d2be a5ed 713e a3e5 6d3e d06d 0cbf
00000270: b2c9 043f 90fb 4fbd 7e12 ccbd a106 423e
00000280: 3349 e2be 6a4d 90bd 5d6f b9bd 319b 403c
00000290: 81c4 99be 22ad d13e 0160 573d 157a 313e
000002a0: 0c8f 673e 715e 08bd beb9 18bf 8d65 df3e
000002b0: 0ad7 0f3f 3d53 83be c0ef b83e a06a f5bc
000002c0: faa8 cfbd a051 d23d a4c1 0a3e f949 c13c
000002d0: 93a8 e6be d6a7 b6be 8487 c33e 89de 353e
000002e0: 6384 81be 752d bcbe 5f5d 9b3e 96d0 1f3e
000002f0: c4df f8be 9ea4 143e 4130 33be 50bb c4be
-0.11840502 0.004325465 -0.35149753 -0.20762046 -0.5382926 -0.04957486 -0.09812525 0.24756064
-0.23804404 -0.20171529 -0.25611776 -0.27556992 -0.014434528 0.19391456 0.22982238 0.036029227
-0.011487085 -0.26289657 0.261625 -0.24847724 0.08952969 0.10096723 0.19396175 0.041202474
0.11569585 -0.21933407 -0.26041964 0.07791694 0.27381554 0.1973796 0.021172995 0.1341862
0.20312227 -0.19566159 -0.09925976 -0.4289681 0.41229698 0.39053315 -0.30437872 -0.72542983
0.09791337 0.070855506 -0.12400463 -0.16211353 0.23812395 -0.010853567 0.29291317 0.40830702
-0.23644517 0.28536025 0.16299872 -0.10478213 0.023752265 0.4084432 0.6082409 -0.34523016
0.2853493 -0.053107116 0.044993706 -0.047442626 -0.29911837 -0.06793858 -0.043890852 0.387336
-0.09274913 -0.10061282 -0.11892076 0.5150716 -0.21402916 0.6409901 -0.34811485 0.09503733
0.24665412 -0.5231269 -0.23913305 0.5529005 -0.33384615 0.011641956 -0.01179231 -0.052595414
-0.24923742 -0.24492526 0.13649483 -0.4538198 0.54574555 0.09746024 -0.25584146 0.20023693
0.07289822 -0.4205747 0.5631447 0.11984694 -0.14268278 0.24494219 -0.18776016 -0.12647879
-0.28700614 -0.4698983 -0.38944194 -0.05502525 -0.012793054 -0.20196475 -0.070570946 -0.027228652
0.0060483064 -0.16687708 -0.19329643 -0.265867 -0.018751105 -0.39982465 -0.35147694 -0.19942439
-0.17843816 -0.16969013 0.14364822 -0.06622012 -0.586634 0.07048707 0.2527417 -0.0022086746
0.09605216 -0.30436102 0.37136358 -0.4154886 -0.5639132 0.53238493 -0.13475932 0.0025820031
-0.6289895 0.55546945 0.5473602 0.1768076 -0.4438577 -0.0765762 -1.0017583 0.45738646
0.84170276 -0.015522498 -0.06310042 0.13187975 -0.26118833 -0.2228092 -0.5102453 -0.2788459
0.012886897 -0.077954516 0.1135692 0.036438808 0.1719729 0.008190836 0.24521811 0.048047654
-0.41068977 0.2362581 0.2323213 -0.5485506 0.5187026 -0.050777018 -0.099644646 0.18947841
-0.44196472 -0.070460156 -0.09054444 0.0117557505 -0.30032733 0.40952402 0.05258179 0.17331727
0.22613162 -0.03329319 -0.5965842 0.43632165 0.561875 -0.25649443 0.36120415 -0.02995807
-0.101396516 0.10269475 0.1355043 0.023594843 -0.45050487 -0.35674924 0.38189328 0.17760672
-0.25296316 -0.3675343 0.30344674 0.15606913 -0.4860822 0.14515921 -0.17498876 -0.38424158

actor.init_internal_node_embed.0.add_bias._bias f4 [32, 1]
00000000: e6b9 c63d b6e3 06be 4994 61bc 46a3 633d
00000010: 122e f43c c7b4 8abd 6e6c 7bbc b1ed 563e
00000020: cb94 9b3c d6d0 a03d 2666 68bd 3843 3a3e
00000030: ad81 953d 3c78 19be a051 023c f91b be3d
00000040: b68b 153d 1b1e 46bb 8e41 f7bc e148 a23c
00000050: c0d0 e73d 5e93 3b3e f4e7 1c3e 3d48 d23d
00000060: 76a1 e43c ada2 a43d 3a32 f3bb 84de b4bd
00000070: bfc3 143d 495f f8bb 55d7 2abb 1187 e73d
0.09703426 -0.13172802 -0.013768264 0.05557563 0.029807124 -0.06772762 -0.015345676 0.2098911
0.018991848 0.07852332 -0.05673804 0.18189704 0.07300124 -0.14987272 0.007954031 0.09282679
0.03651019 -0.0030230347 -0.030182626 0.019810142 0.11319113 0.18317935 0.15322858 0.102676846
0.027909022 0.080388404 -0.007421759 -0.08831504 0.03631949 -0.0075797183 -0.002606829 0.11305059

actor.init_internal_node_embed.2.module.weight f4 [64, 32]
00000000: 68da e33d 533e 363e 4325 e83d 14da 103e
00000010: 61a6 4ebe 0636 1a3e e7ad 763d 7d8f e33e
00000020: fe57 3e3e 5ecd fa3d ace8 873e b6a4 c3bd
00000030: d9ec 0a3d 6652 ffbc 391a 9ebe 15c1 243e
00000040: a4fd c9bc e71e da3d dd0e 563d 9e9b a13d
00000050: 9eb1 dbbd 71cc 48bd 4095 153f 4a92 15ba
00000060: b222 853e 9ba5 1f3e 6892 9ebd 50a0 b13d
00000070: 9779 403e 7d4a 5cbe a6dc 4b3b 4bdd b63d
00000080: 8797 a03e c12f 833d edbd a0be 8201 16bf
00000090: 6861 f7bd 18c7 923e 23d3 a63d 6fbd 83be
000000a0: 2f0b efbe 7d87 813b 9972 183e 2ea6 b03c
000000b0: c6a3 823e cee3 e03d 6ffa 2f3e 4b1e 363e
000000c0: ad82 71bd 9e7f d13d 8b05 1bbe 18ca 93be
000000d0: 3db9 0d3e d4f6 743e af0b bc3e 188c 8c3e
000000e0: 730f c33e 8b9f 6e3d 5155 803e d79e cc3c
000000f0: de86 603e 2916 f13d 8ab9 08be 3a39 723e
00000100: 8dea d2bd 6e21 1ebd f3a9 ca3e 96f7 b13e
00000110: 2460 ab3d 0962 a43b 9957 fa3c 2c24 cf3e
00000120: 1e84 ae3d 57d3 203d c728 2cbe b046 86be
00000130: 8c8d 08be ed4f eb3d 0b4e 58be 4077 4cbe
00000140: 9ecc efbd 0017 133e 5a6f aa3c 2500 a4be
00000150: 4fdf 64bd 2f4d 0cbe 6a09 47be abe0 253d
00000160: fd5f 94be 9ae0 9abe 84b4 89bb bc0f 1fbd
00000170: a380 06be 91d5 9cbe e1f3 323e 4bbb 7fbe
00000180: 6f1f 2dbd 5317 49be ce92 743d b84a ce3e
00000190: 7ed0 a4be 6fc5 4abd c4d4 883c 549d 293e
000001a0: a9ac 9c3e 48ed d13c 8927 263e 3b42 003e
000001b0: 1f1d a2be 5b7e ad3c 430d aabe 280f 813c
000001c0: 338e 003e a75c 9dbe 1c9a b23d c62c 1a3e
000001d0: 8a86 7cbd b271 7b3e aaf2 0abe b2e3 783e
000001e0: a7fb 173e 073b 8fbe 495a 8b3d 3f6f bd3d
000001f0: 1776 d738 ce0e f0bc e666 0bbe 1dac b23e
00000200: 996f 363e 1374 cfbd 640b 4dbd 8c62 163f
00000210: dfd5 0dbe ff84 9ebd ee0a 1cbb d8cd ef3e
00000220: 0d6c b53e 5077 363e 568d 44be b891 cfbc
00000230: 57ea adbe 9f5e 57be 474b a63d 3555 0fbe
00000240: 578a 99bc 74dd 7fbd 3f7d aabc 53fe c4be
00000250: d4db b4bd 9857 f93d af9b 28bf 94a5 57be
00000260: aec8 8abd 390b 32be a480 8b3e ebf5 cbbb
00000270: b9da a2be 0ce2 12be 5af1 1e3e 4340 91be
00000280: 7706 98be ba63 ccbd 3a33 503e 3797 813d
00000290: 6118 5d3e f9c0 f1bd ee71 70bd 4947 aa3e
000002a0: 0d8e 173c 7842 98be fd53 993e 3d23 833d
000002b0: d588 c2bd 383b 4cbe d535 303e ebc5 4f3e
000002c0: af9d 113e 8ab2 9c3d c174 193d 66d6 73bd
000002d0: ef5d d6bc d295 363e 807a 0b3e 650d f7bd
000002e0: d598 ad3e d92d 933d 7c94 2e3e ed9d 5e3e
000002f0: 6ae4 64be 957f 7a3e 3b86 8a3e c2ba 743e
00000300: bac9 9e3d b84b fabb 471b 31bc 43ac 9f3e
00000310: 3e34 c23e 4536 87bd b4af cebd dc21 303f
00000320: ace9 ef3e d852 9d3e 19f7 483e a0ec 753d
00000330: 095e a5be abe4 06be 9336 863c c2f2 87be
00000340: c673 b9bd 2bf5 99be f9b3 7d3c 023d 9dbb
00000350: dc94 20bd a4fe 643e 90e3 bcbe c6f7 1fbe
00000360: eb3c 76bd 1bf6 9fbe 14ca 33be 5804 ddbc
00000370: 7cc5 a0be 2dbe 9f3e 25a7 07be 3024 c8be
00000380: 2788 45be 4850 eabd 77b7 3cbe 99af 643e
00000390: 3b33 463e f107 60bd 24e2 ddbd ff7d e93e
000003a0: 5b95 ae3e e30d 033e 45ca 36be de9c 9e3d
000003b0: 6d2e a73c 046b 923d 4479 4abe b354 283e
000003c0: 1cf5 59bd 7ab8 cebe b345 2f3e 06fc e4bc
000003d0: 9abb c8bc 1d69 22be fd95 ac3e ae1a 72be
000003e0: 5035 5fbe adba 933d 8524 2a3c 33de 1fbd
000003f0: 00cb 2c3e 9d89 763e febb 473e e094 61be
0.11125642 0.17797212 0.11335232 0.1414569 -0.20180656 0.15059671 0.06022444 0.4444541
0.18588254 0.12246202 0.26544702 -0.095529005 0.03391728 -0.03116722 -0.3087938 0.1608928
-0.024657078 0.106504254 0.05226027 0.0789101 -0.10727237 -0.049023096 0.5843086 -0.00057056977
0.26003033 0.15590517 -0.077427685 0.08673155 0.18796383 -0.2151279 0.0031106859 0.08928927
0.31365606 0.06405593 -0.31394902 -0.5859605 -0.12079126 0.2866752 0.0814574 -0.25730464
-0.4668822 0.003952919 0.14887466 0.021563616 0.25515574 0.1098095 0.17185377 0.17784993
-0.058962513 0.10229419 -0.15138833 -0.28865123 0.13840194 0.23922282 0.36727664 0.27450633
0.38097724 0.05825762 0.2506509 0.024978084 0.21926448 0.11771805 -0.13352028 0.23654643
-0.10298643 -0.0386061 0.39582786 0.34759206 0.08367947 0.0050165695 0.030559348 0.40457284
0.08521293 0.03926405 -0.1681243 -0.26225805 -0.13335246 0.11489854 -0.21123521 -0.19967365
-0.117089495 0.14364243 0.02080505 -0.3203136 -0.055877026 -0.13701318 -0.19437185 0.040497463
-0.28979483 -0.30249482 -0.0042024273 -0.038833365 -0.13135009 -0.30631688 0.17475845 -0.2497379
-0.042266306 -0.19637804 0.059710316 0.4029138 -0.32190317 -0.049504694 0.016703017 0.16563922
0.3060048 0.02562584 0.16226019 0.12525265 -0.31662843 0.021178415 -0.33213243 0.015754297
0.12554245 -0.3073475 0.087208 0.15056142 -0.061651744 0.2455509 -0.13569131 0.24305609
0.14842092 -0.27974722 0.0680433 0.09249734 0.00010273995 -0.029303934 -0.13613471 0.34896937
0.17816009 -0.10129561 -0.05005969 0.5874412 -0.13851117 -0.07740211 -0.0023810226 0.46836734
0.35434 0.17818952 -0.1919454 -0.025338039 -0.3396785 -0.21032189 0.08119827 -0.13997348
-0.018742723 -0.062467054 -0.020811675 -0.38475284 -0.088309914 0.1217491 -0.65862554 -0.21059257
-0.06776558 -0.17387094 0.27246583 -0.006224384 -0.31807497 -0.14344043 0.15521756 -0.2836934
-0.29692432 -0.09979959 0.20332041 0.0632767 0.21591331 -0.11804385 -0.0587024 0.3325751
0.009250176 -0.29738212 0.2994689 0.064032055 -0.09498755 -0.19944465 0.17208035 0.20290343
0.14220308 0.07651241 0.03746486 -0.05953064 -0.026167838 0.1783059 0.13620949 -0.12063102
0.33905664 0.07186479 0.1704883 0.21739931 -0.22352758 0.24462731 0.27055535 0.23899367
0.0775332 -0.007638421 -0.010809726 0.31186113 0.37930483 -0.06602148 -0.100921065 0.68801665
0.46857965 0.30727267 0.1962551 0.060040116 -0.32298306 -0.13173167 0.016383445 -0.26552397
-0.09055285 -0.3006986 0.015484803 -0.0047985325 -0.039204463 0.22362763 -0.36892366 -0.15621862
-0.06011669 -0.3124245 -0.17557555 -0.02697961 -0.3140067 0.3119978 -0.13247354 -0.3909011
-0.19290219 -0.11441094 -0.18429361 0.2233261 0.1935548 -0.054695074 -0.108341485 0.4560394
0.34098324 0.12798266 -0.17850597 0.07744764 0.02040788 0.07149318 -0.19772822 0.1643856
-0.05321227 -0.4037512 0.17116432 -0.027952205 -0.024503518 -0.1586041 0.33708182 -0.2364299
-0.21797681 0.0721334 0.0103846835 -0.039030265 0.16874313 0.24075933 0.19505307 -0.22029448

actor.init_internal_node_embed.2.add_bias._bias f4 [64, 1]
00000000: 3073 003e 58e8 433e 75a3 2ebe b373 883d
00000010: 6a97 07be 47ab 8c3e 244e 9a3d 329e 793e
00000020: d876 393e 8f2d 68bd 0887 fb3d bacd cf3e
00000030: 9298 51be f65a 3d3c b8d4 3abf 1c78 843e
00000040: 9c9e adbe 1cfd dc3e d3f9 86be ae9d e43d
00000050: f5ce bbbe ee5a 51bb ba87 b7bb 8131 1cbe
00000060: 2f68 8bbe 074a dabe 44dd 903e 5e61 8d3e
00000070: 5687 0bbe 4fc9 313e cfa9 e73e 0c49 79be
00000080: 1803 94be dbb4 e8bd 8f63 c3be 8ac2 983d
00000090: 0b03 da3c f492 81be e90b 4cbe 6ec5 563e
000000a0: 9a0e 7e3c 778e 7a3e 9258 ba3c 9f7a 273d
000000b0: c424 3a3e c31f 503e 6e31 783d f059 443d
000000c0: ae29 b3bd a817 57be 6c97 4bbe 503c bb3c
000000d0: 65b7 ba3e 6df3 3cbe d181 ab3d 0348 9ebd
000000e0: bd96 a5be c6fa dabd 22af 6a3a 6f14 5dbe
000000f0: 814e e23d 355d 873d a1ae 2e3a 5d3b e33d
0.1254394 0.19131601 -0.17054541 0.06662693 -0.13241354 0.27474424 0.075344354 0.24376753
0.18111742 -0.056684073 0.122816145 0.40586644 -0.20468357 0.011557331 -0.72980833 0.25872886
-0.33910072 0.43161857 -0.26362476 0.111628875 -0.36681333 -0.0031945067 -0.0056008967 -0.15253259
-0.27227923 -0.42634603 0.28293812 0.27613348 -0.13625845 0.1736195 0.4524674 -0.24344271
-0.2890861 -0.113626204 -0.38161895 0.074589804 0.02661278 -0.2530743 -0.19926418 0.20973751
0.015506411 0.24468409 0.022747312 0.040888425 0.18178087 0.20324616 0.060594015 0.047937334
-0.08748184 -0.21005118 -0.19881982 0.022855908 0.36468044 -0.18452235 0.0837437 -0.07728579
-0.32341567 -0.106923625 0.00089524884 -0.21589826 0.1105013 0.06609575 0.0006663595 0.11095307

actor.init_leaf_node_embed.0.module.weight f4 [32, 8]
00000000: 79d2 843d 7e94 3bbe 0e46 69be a63d 0bbe
00000010: 7b30 6cbd 657e a23e aeba fd3e 6307 8a3e
00000020: ec38 56be 1e39 dabe f182 be3d aa20 08bf
00000030: 401a babe 759d 7c3e c7d3 b4bc e6bd ba3e
00000040: 4ae7 2e3e 0a3c c0be 9823 0abe 98bf bb3e
00000050: f994 a0bd 0c5f 04bf 022d 68bd 7e1e 8abd
00000060: aab9 bdbe 53f5 d4be d00f 8bbd 59ae 95be
00000070: 5301 013f 8814 9ebc 910d e73e aee4 e93d
00000080: af77 e33a 6d96 9cbc 2d3f 193e ce35 0d3d
00000090: b6a7 7a3e b8c8 23bc 0650 ffbe a252 c83e
000000a0: 3e81 f43c 86b0 993d 608b 15bf 227c c03c
000000b0: 9317 b5be 97f6 923e e8ad fabd 8b8a 83be
000000c0: e2bb 99be 989a 35be 89e4 a03c 7b76 a43d
000000d0: 112f 0d3e 9f10 efbd 6268 ccbd 8415 e0bd
000000e0: 616e 013d 86fd 52bf 8e4c 5bbc 4557 283f
000000f0: 3041 723e 54d7 9e3e 1e1e 383d 1cc2 663e
00000100: b852 03bd b866 3fbd 1dd1 60be b825 b13e
00000110: 5de7 393e f951 1a3e 6812 fb3e 092f b23e
00000120: d4be 10be d7ca c63e 1eb9 2bbe cfb7 d53e
00000130: 7d01 793d 2885 37be b3a1 e73e cc05 99be
00000140: 0efc 04be dce8 61bd ffa9 e63d 3cb0 89bd
00000150: 5175 e53e ccf5 90bb c6b2 45be e961 ad3c
00000160: e988 6ebe fdad 2cbc f75a 3f3e 5f65 833c
00000170: 6408 eb3e 085d ec3c 9283 88bc 1d41 b7be
00000180: 43cd 973e 7cd1 5a3d bed9 de3e 604b 8abe
00000190: 36bc a0bd e969 5abb 2ff3 bb3e 26c1 eebd
000001a0: d35b 97be e83b dd3d f799 263f c471 a6be
000001b0: bc0c 97be 5280 dabb c22c b63e a72a 9c3d
000001c0: 6f4d b93e 079b 353e 7445 8d3d d529 923e
000001d0: b584 0cbe 13ef eb3d 1543 e93d aff0 94bd
000001e0: 6134 9c3e 9468 eb3c f9da 9fbe ddf1 97be
000001f0: 51bc a93e 44bd e53e 664a 123d d102 9cbe
00000200: 3295 9fbd aae5 a43d b6bb d7be e275 a53e
00000210: 98c7 133e 2023 afbe e1f7 77be b690 a03d
00000220: 96bb 53bd a054 643e 2abc 933e cba3 253d
00000230: 62b4 8bbe 7e93 ca3d 66e4 3d3e c96e 933e
00000240: 7090 67be 13fc c23d 462e 23bd 00fd a4be
00000250: 5348 69be 8999 8b3e 58bb 483d 23d3 f43d
00000260: b0d2 2fbf 85fe 81be 5dd0 aabe 5676 033f
00000270: 8189 f63e 8c7b ba3e ae72 b7bd ba1a d93d
00000280: ef26 68be 6d2e 4dbe e667 2abf 180d 01bc
00000290: bd05 27bc 7fdf c53e a2a5 10be 682f 86be
000002a0: a8ce c23d e4dc 5dbe 3c75 933e dfbe 6ebd
000002b0: f636 84bc 0077 bfbd 4ea6 47be a999 6d3d
000002c0: ce0d 63bf 5b6c 06be e246 293e 0bbd 463f
000002d0: 8aae 4c3f 6068 7f3d cac9 f13d 4563 073e
000002e0: c732 1abe a072 37bd 1e72 0b3d e3de 1dbe
000002f0: 6af2 363e 8b80 ad3d 7fa2 17bd 2a7b 7ebd
00000300: c0bd e9bd 2567 96bd f55a b53e 8c51 ac3d
00000310: e76a 203e af21 05bb 4fbb 8cbc d6e8 fc3e
00000320: 335d bd3e e5dc 9a3e a41a 15bf 9b13 a8be
00000330: 99a7 c7bc 4227 3e3d 3ccb 3f3d 1197 99be
00000340: bbd7 26bd e83f 02bf cf3f c9bc c9b4 383f
00000350: 46b7 043f 227d 433d 38f3 e33e 1c7b 8ebe
00000360: 78c8 8d3d cf5c adbe 70ba 01bf bf5b fdbd
00000370: 4c99 cf3e b9b3 10bc be31 5e3e ef74 ba3e
00000380: adb7 aa3e 0c2e 1cbe 759b 29be b94f a1bd
00000390: 90d4 583c fecd c1be c058 d13d 2706 503e
000003a0: ec86 dd3d 05a9 8b3e ae2a 973a 0875 52be
000003b0: 7437 9e3e fb9f a7bc 3e4b 5ebe 91dc 283e
000003c0: 9745 a53e 2f38 013f d3e3 e7be 0ff2 39be
000003d0: 55ec 60be 5ca7 5abe 7d0d 10bd 5e9f e93e
000003e0: 25e5 c63d 28e0 013f b640 b0be bd09 b5bd
000003f0: 3e1e 163e 7178 d73e 443c 303e b9d1 c6bd
0.06485457 -0.18318364 -0.2278063 -0.13597736 -0.057663422 0.31737056 0.49556488 0.2695876
-0.20920151 -0.42621702 0.09302319 -0.5317484 -0.36348152 0.2466944 -0.02207364 0.36473006
0.17080417 -0.37545806 -0.1349014 0.36669612 -0.07840914 -0.5170753 -0.056683548 -0.06744097
-0.37055713 -0.41593418 -0.06790125 -0.2923458 0.50392646 -0.0192969 0.45127538 0.1142057
0.0017354394 -0.019114697 0.14965506 0.03447514 0.24478039 -0.009996586 -0.4986574 0.39125544
0.029846784 0.07504372 -0.58415794 0.023496691 -0.35369548 0.28703758 -0.12240201 -0.25691637
-0.30026156 -0.17734754 0.019640224 0.08030411 0.13787486 -0.11673092 -0.09980847 -0.10941604
0.031599406 -0.82418096 -0.013384951 0.6575816 0.2365768 0.31023657 0.044950597 0.22534984
-0.03206131 -0.04672882 -0.2195477 0.3459909 0.18154664 0.15070333 0.4903748 0.3480151
-0.14135295 0.3882663 -0.16769835 0.41741797 0.060792435 -0.17921889 0.45240554 -0.29887235
-0.12986776 -0.055153713 0.11262893 -0.06723067 0.44816068 -0.0044238325 -0.19306478 0.021164851
-0.23294415 -0.010539529 0.18687044 0.016039548 0.4590484 0.028852955 -0.0166643 -0.35791865
0.2964879 0.053422436 0.435255 -0.27010632 -0.078483984 -0.0033327288 0.36708972 -0.11657934
-0.29562244 0.10802442 0.6507868 -0.3250867 -0.29501903 -0.006668129 0.35581023 0.07625323
0.3619189 0.1773492 0.06898013 0.2854754 -0.13722499 0.11520209 0.11389748 -0.07272469
0.30508712 0.02873639 -0.3122175 -0.29676715 0.33151487 0.4487096 0.035715483 -0.304709
-0.077921286 0.080516174 -0.421354 0.323165 0.14431608 -0.34206486 -0.24215652 0.078401014
-0.051692568 0.22297907 0.28854495 0.04043941 -0.2728606 0.09891413 0.18544158 0.2879546
-0.22613692 0.095207356 -0.03983905 -0.32224274 -0.22781496 0.27265576 0.04900679 0.11954334
-0.6868086 -0.25389495 -0.33362094 0.5135244 0.48151782 0.36422384 -0.0895742 0.10600801
-0.22671102 -0.20037241 -0.66564786 -0.007876657 -0.010194239 0.38647076 -0.14125684 -0.26208043
0.09512073 -0.21666294 0.2880038 -0.058287498 -0.016139489 -0.09348869 -0.19497034 0.05800787
-0.8869294 -0.13127272 0.16530946 0.77632207 0.79953825 0.0623554 0.11806066 0.13221462
-0.15058433 -0.04478705 0.034044378 -0.15417056 0.17865911 0.08471783 -0.037020203 -0.062129177
-0.11413145 -0.07343892 0.35420957 0.08413991 0.1566578 -0.0020314266 -0.01717916 0.4939639
0.36985168 0.30246654 -0.58243775 -0.32827458 -0.024371909 0.046424158 0.04682468 -0.29998067
-0.04073308 -0.50878763 -0.02456656 0.72150856 0.51842153 0.047726758 0.445215 -0.278283
0.06923002 -0.3385987 -0.50675106 -0.12371015 0.40546644 -0.008831912 0.21698663 0.36417338
0.33343259 -0.1525194 -0.16563208 -0.07876534 0.013234273 -0.37852472 0.10222006 0.20314847
0.1081675 0.2727739 0.0011533105 -0.20552456 0.30901682 -0.020462027 -0.2170839 0.1649039
0.32279655 0.50476354 -0.45291004 -0.18158744 -0.21965154 -0.21352905 -0.035169113 0.456294
0.097116746 0.5073266 -0.3442437 -0.08839748 0.14659974 0.42084077 0.1721049 -0.0970797

actor.init_leaf_node_embed.0.add_bias._bias f4 [32, 1]
00000000: 472d bebc 89b4 b33a 1d42 44be e308 063c
00000010: 3d35 53be 7d42 12be eb98 853d b955 bcbd
00000020: fe73 f73d 2393 9d3c f2f5 b93a 66a0 abbd
00000030: 1231 9b3c 9d21 7c3d 8265 07be 2feb 6a3d
00000040: f2e6 b0be 3524 68bd 7222 04bd 49e5 8ebd
00000050: e150 07bd 94d8 863c de7e cd3d a9dc 643c
00000060: 5405 fdbc c4ab b33c fd27 9a3d 1a1e 0fbd
00000070: 177b 7bbd 4b5e 513b be8c 72bc 58ff d0bd
-0.02321495 0.001371042 -0.19165845 0.00818083 -0.20625778 -0.14283176 0.065233074 -0.09196038
0.12082671 0.0192352 0.0014187677 -0.08380203 0.018944297 0.061555494 -0.13222316 0.057353195
-0.34551197 -0.056675155 -0.032259412 -0.069773264 -0.033036117 0.016460694 0.100339636 0.013968625
-0.03088633 0.02193249 0.075271584 -0.034940816 -0.061396684 0.0031947072 -0.014804063 -0.10204953

actor.init_leaf_node_embed.2.module.weight f4 [64, 32]
00000000: 2604 a3bd f695 143e 126a 1e3c ce2f 16be
00000010: 51fa 89be 8f45 263e 0cd3 893e bb70 c5bd
00000020: 79c0 e9bd 48c3 c23d 70ed 523e 9db8 98bd
00000030: 699d cebe 95e8 17be 6657 b33c c97a 1b3d
00000040: faf2 7ebd 1211 4ebe 21ad 1e3e 55f0 9d3e
00000050: aba9 9a3e bce1 09be f322 213f 02f7 2c3e
00000060: 3e6a 4c3e c803 8e3d bcc9 a63d 806b fd3d
00000070: 0898 ccbd d814 883d b329 453e ef33 7dbe
00000080: 91ba 84be d6a1 373d cdab 9dbc 7e18 10be
00000090: d0a5 42be 414f bcbd d6bf 6cbe f431 b33e
000000a0: b117 4e3e 498e 99be f09c 8a3c 88b5 d0bd
000000b0: aea1 78be 96a3 25be 8626 dbbd 1f64 c4bd
000000c0: ef11 933e a4a3 3d3d ac15 e23d 7ef3 22be
000000d0: e63d 4bbe 477e 603e 0ffa 9a3e 1166 b23e
000000e0: e47e 393e 6612 73bc 1e9c 053e 21e1 143c
000000f0: 9573 ab3d 14d4 0bbe 4e3a 863e edc0 2ebe
00000100: 6f4e 77bd 7e23 273e 349f bebc 7854 bdbe
00000110: 25ff a23d dbd5 023e 37de 05be 0818 393d
00000120: 6cc6 5e3d a1e3 ea3e ad46 2ebd a5d5 f43d
00000130: 74b6 9abd b215 063d fd63 723e fa54 c93d
00000140: 93e5 31be c2c5 78be 6bba d03d e003 0f3e
00000150: 6293 1cbe e039 6d39 0d88 003d 44f5 a83d
00000160: 6cce a43e 8d9d 6a3e 3b57 893e d434 b83d
00000170: 69c1 2ebe db88 d33d 3f7f febe 2554 2e3c
00000180: 3485 363c e839 80bd 7a90 a8be ba21 9b3e
00000190: 745b 9cbe fafc 603d 5de5 2cbe 7c9c 8f3d
000001a0: 91fb 033d 5c12 213d 86c2 0c3e c092 ab3d
000001b0: 14e7 893d 3e02 afbe 7c93 c0bd 170e 9e3c
000001c0: 2c5b 40be 3cfb 853d bd0d 733d 270f 353e
000001d0: fb48 ddbd 34c8 73be a0d0 25bd 720f 0f3e
000001e0: 72c5 f63b d4e0 a5bd 36fc a23e 58ea 613e
000001f0: 2a36 383e d243 45be 4ef0 9bbd 4da7 4c3e
00000200: efc7 763d a8a5 0abe c6d4 9fbe 3461 543c
00000210: 06eb 9bbd 1385 a43c df33 7bbe 9dd9 07be
00000220: 0a6e 22bf a65d a23e 70b2 efbb 30e3 2bbe
00000230: 8124 413e 83ab e33d e46d 74be 4835 463e
00000240: 5e1b bd3c aea6 e8bd 11b5 9ebe c43c f63c
00000250: 396f b83e 57f5 073e 3837 cbbd 456d d6bd
00000260: 4e90 acbe b5da 103e 7a6e e63c 10bd b43c
00000270: c5f9 bbbd 0bae 143d c688 8abd c1d4 7f3d
00000280: 08cb b5bb ba41 2d3e 6c41 17be 64e6 6ebe
00000290: ce0d 2b3e 0682 d9bd f93d 973d 5baa 5a3d
000002a0: 2ce2 d3bb 82f6 4ebe d029 d13d e292 dc3d
000002b0: bbf9 8f3e c9c4 2bbe 0648 f33e 7a39 1fbe
000002c0: e5ab 8e3e 22b0 be3e 4ccb 693e d9cf 9bbc
000002d0: aad8 5cbe 64bb 053e 0212 953d eefd 28be
000002e0: 957e 81bd 9764 85bc 65e3 0c3e 822f 983e
000002f0: 9d69 91bd 5a1f c43a 9a0d e4bd 4cc5 ab3d
00000300: c4a8 32be 2a02 8dbe 2f90 99be 357d bb3b
00000310: 244a 05be 501a afbd a75c bebc e6e2 5abc
00000320: b14a bcbd 0888 21bd 42d2 003d fe07 80be
00000330: 0ef1 973e 141f 893e 620f 34be b312 06be
00000340: 7ee6 c0bd ecbc f03e 2e03 1e3e 52a2 a0bd
00000350: 4742 813e c6a5 cbbd 8acf 45bc 417f d63d
00000360: 026e 5f3e fa1c b13d 9d7c 70be 256d fe3d
00000370: 13fb 153e d665 e3bb b7ef 7dbe ab78 473d
00000380: 0fc3 6b3e af24 0b3f b022 dfbc 478e 1ebe
00000390: de1a 86be 0127 6ebe abda 133e 2557 edbc
000003a0: d099 88bd 6cdc acbb 0b79 8c3d 6e44 6cbe
000003b0: a010 d83b a3bf 20be de5f 62be 48f5 923d
000003c0: 88ec e6bd 5299 973c b1ca e5bd a0e4 9a3c
000003d0: 4564 223d 8c2b 273e 48d5 aa3d cbde 01be
000003e0: cf94 333d 6d4c 88bd bb07 59bd a100 45be
000003f0: 6b9c 3a3e 5950 74be 6a06 d43d c3d2 7a3d
-0.079597756 0.1451033 0.009668844 -0.14666674 -0.2694879 0.16237472 0.26918828 -0.09640642
-0.11413664 0.09509903 0.20598388 -0.07457087 -0.4035447 -0.14834817 0.02189226 0.037958894
-0.06224344 -0.201237 0.15495731 0.3084742 0.3020757 -0.13465017 0.62943953 0.16891101
0.19962403 0.06934315 0.081439465 0.123740196 -0.09989935 0.06644601 0.19254188 -0.24726842
-0.2592359 0.044832073 -0.01924696 -0.14071843 -0.19008565 -0.09194804 -0.23120055 0.3499905
0.20126225 -0.29991367 0.016920537 -0.10190874 -0.24280426 -0.16175684 -0.10700707 -0.09589409
0.2872462 0.046298638 0.1103929 -0.15913197 -0.19847831 0.21923171 0.30268905 0.34843495
0.18114811 -0.0148359295 0.13047835 0.009086878 0.08371655 -0.1365512 0.26216358 -0.17065783
-0.060377534 0.16322133 -0.023269273 -0.36978507 0.07958821 0.12776892 -0.1307305 0.045188934
0.05438845 0.45876792 -0.04254787 0.11954812 -0.075543314 0.032735534 0.23670955 0.09830661
-0.17372732 -0.24294189 0.101918064 0.13966322 -0.15290597 0.00022623641 0.031379748 0.08249906
0.32188737 0.22911663 0.26824364 0.08994451 -0.17065968 0.103288375 -0.49706456 0.010640179
0.011140157 -0.06261045 -0.32922727 0.3029917 -0.30538523 0.054928757 -0.1688437 0.07012269
0.032222334 0.03932415 0.1374608 0.083776 0.06733528 -0.34181398 -0.094031304 0.019293828
-0.1878478 0.0654206 0.059339274 0.17681561 -0.108049355 -0.2380684 -0.040482163 0.13970736
0.0075308615 -0.08099523 0.31833047 0.22062051 0.17989412 -0.19264153 -0.07614194 0.19985695
0.060249265 -0.13539755 -0.3121702 0.012962628 -0.076131865 0.020082986 -0.24531506 -0.13266607
-0.63449156 0.31712073 -0.0073149726 -0.16785884 0.18861581 0.11116698 -0.23870045 0.19356263
0.023084339 -0.113599166 -0.30997518 0.030058272 0.36022356 0.13277183 -0.099226415 -0.1047006
-0.33703846 0.1414593 0.028128851 0.022062808 -0.09178499 0.036298793 -0.06764369 0.062458757
-0.005547885 0.16919604 -0.1477105 -0.23330075 0.16704485 -0.10620503 0.07384867 0.05338512
-0.006466171 -0.20211223 0.10213053 0.10770203 0.28120217 -0.16774286 0.47515887 -0.1554927
0.2786552 0.37243754 0.22831458 -0.019020008 -0.21567026 0.13059765 0.07278825 -0.16503116
-0.06322972 -0.016283317 0.13758619 0.29723746 -0.07100222 0.0014962957 -0.11135407 0.08387241
-0.17447191 -0.27540714 -0.29992816 0.005721713 -0.13016564 -0.085499406 -0.02323754 -0.013359761
-0.09193934 -0.03943637 0.031450517 -0.25006098 0.29676098 0.26781523 -0.17583993 -0.1309307
-0.09418963 0.47019136 0.154309 -0.0784346 0.25245878 -0.09943728 -0.012073407 0.104734905
0.21819308 0.08648105 -0.23485036 0.124231614 0.14646558 -0.00693963 -0.24798475 0.048699062
0.23023628 0.5435285 -0.02723822 -0.15483962 -0.26192373 -0.23257066 0.14438884 -0.028972218
-0.066699624 -0.0052753 0.068590246 -0.23072979 0.0065937787 -0.15698104 -0.22106883 0.0717569
-0.112755835 0.018505726 -0.11220301 0.018907845 0.039646406 0.16325206 0.083414614 -0.12682645
0.043843087 -0.06655202 -0.052985888 -0.19238521 0.18223731 -0.23858775 0.10352786 0.061236154

actor.init_leaf_node_embed.2.add_bias._bias f4 [64, 1]
00000000: f967 713d bf6b 363e 7cc4 2d3e 5679 b43d
00000010: 1b5d ffbc ba8f ab3e 33d2 ddbd 0e0e b73d
00000020: 01d2 d53d bd0f 303e 7297 9f3d be00 1cbe
00000030: f3fe 10bd eacb e3bc 459c 0ebe e22d 863d
00000040: 5e9e 35bc 22e3 553d 2511 99bc 3e97 53be
00000050: d678 01be 3053 823d 5d29 643d 060d 07be
00000060: 3dc0 1e3d 917c c43c dbb3 7cbc a337 5a3e
00000070: 1051 c7bc 49db ba3d c9bd 34be db8d e1bc
00000080: 806a 4b3e 6157 1a3e b791 dabd 82bd 11bd
00000090: 55dd 02bb 5146 ec3d f659 ff3d e6df 0a3d
000000a0: 98bf 233d 125b 17bd e7ee b4bd c8e2 1bbe
000000b0: bc58 2abd 1778 92bd 48ae 2e3c 880a a6bd
000000c0: 0b82 8c3e d962 b53c a1e8 493d 79e4 d1bd
000000d0: 29ee 27bd b30f bc3d 17f1 f3bd 68dc 6f3d
000000e0: bcf5 ac3b 0c42 b8bc bb08 3dbc 6319 83be
000000f0: 29f2 673e 86f4 393c 925d 053e c816 7abc
0.058937047 0.1781454 0.16969484 0.088122055 -0.031172326 0.33508092 -0.10831108 0.089382276
0.10440446 0.17193504 0.07792558 -0.15234658 -0.03539939 -0.027807195 -0.139268 0.0655172
-0.011085121 0.052218564 -0.018684933 -0.20663163 -0.12643752 0.06363523 0.05570351 -0.13188562
0.03875755 0.02398518 -0.01542374 0.21310286 -0.024330646 0.091238566 -0.17650522 -0.027533462
0.19864845 0.15072395 -0.10672324 -0.03558112 -0.001996835 0.11536849 0.124683306 0.033904932
0.03997764 -0.036952086 -0.088346295 -0.15223229 -0.04158853 -0.071518116 0.010661669 -0.081074774
0.27442965 0.02214186 0.049294118 -0.10248656 -0.04099861 0.09182682 -0.119112186 0.058559805
0.0052783173 -0.022492431 -0.011537726 -0.25605306 0.2265097 0.011349803 0.13023975 -0.015264221

actor.init_next_embed.0.module.weight f4 [32, 6]
00000000: 4147 533c b261 17be d009 99be 1cd8 0bbf
00000010: ba4f 92bb 6983 82be 51bc 453c 51ff c7bd
00000020: 0451 3f3e 00c6 18be f678 30be 6df4 51be
00000030: cd36 bfbd 0d16 89be 77fc 83be d7c0 583f
00000040: 6277 6f3e d340 003e c1ec 293e fdfb 143d
00000050: 9495 07bd 6944 013f ad3e e6be ea0f dcbe
00000060: 115c 5f3e 5213 d8be 921b febd 12db a1be
00000070: 7a5a 4ebd 9263 b5bd a345 f43d ccc5 13bf
00000080: bc29 913e 511b f8be 6f9e f73d e102 553f
00000090: b57b a9be 8bc7 d23d 8f5a 913d 8a3c 993e
000000a0: 5459 bebd 5be5 93bd 4266 ccbd c459 c93d
000000b0: b552 153e c960 3f3e c8c8 a7be 2344 a13e
000000c0: 2a44 9a3d 7928 17bf 3554 7a3e 2365 f83e
000000d0: 462c 4d3e 5683 34be 8a4f dd3d 8ca0 95be
000000e0: 02a6 3abe 873a 393d 20b6 b4be 012e e9be
000000f0: 71d9 69be 3678 3a3e 4612 843c ff25 783e
00000100: 015d 863e 6fe1 d6bd 0a94 013f a57c efbc
00000110: 102e b1bc 7e8e 803c b6d0 263d 8201 b6be
00000120: 46b6 b3be 907e 06bd 6150 153e f370 443c
00000130: 9724 79be 7304 aabe 0612 71bd 0ba8 153c
00000140: 4f46 fe3d 72b1 1cbe 5c8a a6be ea55 31be
00000150: 53d7 863e 2d89 69be d914 83be acb1 30be
00000160: 91b5 85be 26b8 de3d ab96 383d 103a 82bd
00000170: 686d 98be 206d 193e 6730 f7bd 7347 f73e
00000180: c07d 8cbe cc78 0bbd 7349 e6bd 8527 00be
00000190: 9dcf c9be 59df ff3d 9584 133f 30f0 4ebd
000001a0: 51bc 493e 4e55 e1bd 74a0 993c f355 883d
000001b0: 165d 14bd 3d85 933e 1918 6a3e f6a6 2f3f
000001c0: de9a 333f 9e7b 4e3f d69e 043f 65fe 793e
000001d0: e8a9 b7be 1eaa 9fbe 9990 593e 261c bdbb
000001e0: 320c 933e 5055 d63c 58e4 14bd 6689 debd
000001f0: 041d 68be 43c0 843e 27f2 2cbe e210 58be
00000200: 22e0 37bf 6efe afbc 0ea5 4f3d 619c aebd
00000210: 38e9 393e a445 17be a075 c7bd 5ce3 5b3e
00000220: 6000 99be b73f 103e 0c0f d63d 0e27 88be
00000230: 3262 a93e 6878 61bf b18f eebe 7f52 2ebf
00000240: fcc7 cb3d 5fdc cbbd 22d6 3abe bbd7 233f
00000250: 3fc1 463f 92f1 ab3e 596f 5e3e b767 923e
00000260: a5c0 83bd e768 10be 0278 3abe 606f d7be
00000270: 990b 28ba 93fe a3be 6a75 393e ee2a aa3e
00000280: eb5a d93e d121 2d3e b2c1 00bf a3c9 c3be
00000290: 814f 41be 97de 77be 7f3c 513e eee8 32be
000002a0: 48e7 4e3d 6597 523e 04ec 9bbc 9b72 1fbe
000002b0: 1466 713e 6151 cfbe 6339 a4be ab43 6c3e
000002c0: cdf5 afbe fae7 243e fe60 153f ff3f 393e
000002d0: 5430 e1bd a4b2 84be ea67 973e f834 e6bd
000002e0: 02c6 9a3a e59f 383e 33e6 823d 89e3 67be
000002f0: 9db3 f0be eb49 833e ca6e 77bd 4e12 f0bb
0.012895406 -0.14783362 -0.298903 -0.5462663 -0.0044650706 -0.25490883 0.012068824 -0.097654946
0.18683249 -0.14919281 -0.17233643 -0.20503397 -0.09336624 -0.26774636 -0.25778553 0.8466925
0.23385385 0.12524728 0.1659422 0.036373127 -0.033101633 0.5049501 -0.44969693 -0.4298089
0.21812464 -0.4220224 -0.12407602 -0.3161245 -0.050379254 -0.08856882 0.11927345 -0.5772369
0.28352153 -0.4845834 0.12090766 0.8320752 -0.33102193 0.10291966 0.07097351 0.29929
-0.09294382 -0.072214805 -0.09980442 0.098315746 0.14582331 0.18689264 -0.3277037 0.31497297
0.075325325 -0.5904613 0.24446185 0.4851466 0.2003642 -0.17628226 0.108061865 -0.2922405
-0.1822739 0.04522183 -0.352952 -0.4554291 -0.22836854 0.1820992 0.016121995 0.24233244
0.2624283 -0.10492217 0.50616515 -0.02923424 -0.02162841 0.015692946 0.040726386 -0.35548025
-0.351 -0.032835543 0.14581443 0.01198982 -0.24330364 -0.3320652 -0.05885508 0.009134303
0.12415754 -0.15302065 -0.32527435 -0.1731793 0.26336154 -0.22806235 -0.25601843 -0.17255276
-0.26115087 0.10874967 0.045065563 -0.06358731 -0.2977097 0.14983034 -0.12069779 0.482967
-0.2743969 -0.034050748 -0.11244478 -0.12515076 -0.3941621 0.12493772 0.5762418 -0.05052203
0.19700743 -0.11002599 0.018753268 0.066570185 -0.036221586 0.2881259 0.22860755 0.6861414
0.70158184 0.80657375 0.51804864 0.2441345 -0.35871816 -0.31184477 0.21246566 -0.005771178
0.28720242 0.026163727 -0.036350578 -0.108660504 -0.22667319 0.25927934 -0.16889249 -0.2110019
-0.71826375 -0.021483626 0.050694518 -0.08525921 0.18155372 -0.1477266 -0.09739232 0.2147345
-0.298831 0.14086805 0.10452089 -0.26592296 0.3308273 -0.8807435 -0.46594003 -0.6809463
0.09950253 -0.09954142 -0.18245748 0.64001054 0.7763862 0.3358274 0.21722163 0.28594753
-0.064332284 -0.14102517 -0.18209842 -0.4207716 -0.00064104196 -0.32030162 0.18111196 0.33235878
0.42452177 0.16907431 -0.50295556 -0.38239774 -0.18877985 -0.24206005 0.20433234 -0.17471668
0.050513536 0.20565565 -0.01903344 -0.15571062 0.23574096 -0.40491775 -0.32075033 0.23072688
-0.3436722 0.16104117 0.58351123 0.18090819 -0.10995546 -0.25917542 0.29571468 -0.11240572
0.0011808279 0.18029745 0.06391563 -0.22645392 -0.47012034 0.25642332 -0.06040839 -0.007326401

actor.init_next_embed.0.add_bias._bias f4 [32, 1]
00000000: 56d9 cabb 870c 63b9 5e9a a33c 1220 bd3c
00000010: ab84 f33a 1b0c 823f 1779 22bd 7952 02be
00000020: a6d5 1dbe 7ecb bcbc c11b d7bd e977 3f3c
00000030: dc24 5aba 8667 2b3e 5c4d d4bc 79dd 013e
00000040: 690b bcbc 9256 2bbd a698 d73e 6bf2 d5bd
00000050: 5f9f bbbd 1f28 58bc f8ac 543e 72c0 f23e
00000060: 4031 5d3f 052d 9dbc dc0c 183e c07b 0fbc
00000070: 1fff 2f3e 7b46 453f 34bb c3bd 522b a03e
-0.0061904592 -0.00021653074 0.019971069 0.023086581 0.0018578967 1.0159944 -0.03966626 -0.12726773
-0.15413532 -0.023046251 -0.105033405 0.011686304 -0.00083215325 0.1673871 -0.025915794 0.12682141
-0.02295466 -0.041830607 0.4210865 -0.10446628 -0.09161257 -0.013193159 0.20769107 0.4741245
0.86403275 -0.019186506 0.14848655 -0.008757532 0.17187165 0.7706067 -0.095571905 0.3128305

actor.init_next_embed.2.module.weight f4 [64, 32]
00000000: 05e1 883d 8e99 d1bd 9d50 cf3d c406 363e
00000010: 759b 803d 75b9 3abc d78c 33be 2aa6 d6be
00000020: 1ff3 7ebd 52c0 9d3e fe7f 1c3e b9e4 a73d
00000030: da7c b13d bf2b 3a3e aa27 2a3e 1589 06be
00000040: e089 28be 0d56 1c3e e767 3ebe d75d 68be
00000050: 70a8 013d a1f8 6d3e 541b 2abf 8f93 9fbc
00000060: d309 73be 21cd aa3e b36f f9be 7f56 c2bd
00000070: f7a7 803e 412f f4be c87d ee3d c700 e5be
00000080: 0aac 913e e535 5abd 45df a4bd 8811 c2bd
00000090: 85a2 09be 49fa 1fbe ba38 46bd 1b89 e4bc
000000a0: 2dc6 4d3e 6f9e 0d3d 7ef8 eb3e 2cba 6e3e
000000b0: aa57 d3bc fcec 5d3c de4c 963d f2d5 72be
000000c0: 63bf 293e bb7c 713a d38b b0bd e7a0 dd3c
000000d0: b2a3 473e ded0 743d d04b 793d 2fe1 84be
000000e0: 4e25 f8bd 5c72 703e c888 583e fa44 a4be
000000f0: 07d7 c83c 6978 783e 6f55 61be 8de0 92bc
00000100: e255 143d 201d 253d d392 bb3b 276c 23be
00000110: 0015 e7ba 6098 f7be ca83 08be 11d8 babe
00000120: 8f13 a2bb c4f0 09be ec93 d23d 4a67 43bd
00000130: 23de c13d e9ee debd 6ddb a53c ab9e cf3e
00000140: 0d37 75be d7da f0bc fa8c dd3c a0ee 083e
00000150: 7b45 f5bd b96e 7b3d 95b6 b4be fb28 32bf
00000160: ee67 e4be 31b2 ec3d da65 16bf cba3 24be
00000170: 83ff 8fbe b179 23bf c923 c9be 0dbd cebe
00000180: 1a86 ba3d ce2c 213e 0000 903e 66ce 9dbd
00000190: e9a8 b0be 4263 a3be 4688 0d3e 39d5 023e
000001a0: ee38 793d 8a30 773e 6663 adbe 6c4d 98bd
000001b0: c975 e93d a45d de3d 3857 f63d 2b1f d3bd
000001c0: 24b7 24be 3751 e63d 32ce cd3d 221f 0b3d
000001d0: f447 40bd a216 2a3c a997 343c 2c88 febd
000001e0: 02d9 b3be 818d ecbe 6ee5 2bbe d171 a3be
000001f0: 614c 3a3d aca6 a8bc 09e0 ea3c 4aa9 f33d
00000200: 8fe9 1fbe e5f7 c6be d5c8 dabd 190e 833e
00000210: 4925 d93d e13e e43c ef16 06bc 845d f6bd
00000220: b5e1 7a3d 8e17 f9bd 3415 7bbe b590 353e
00000230: 8324 eebc 1a3d 66bd b612 833e 5555 f63c
00000240: fe6b 2e3e 8120 483e 5a8c aabd 1cb3 273d
00000250: 7a12 31be 3e79 b13d 4581 953e e449 f43e
00000260: ed4f bebe c208 dabd 21d2 ae3e 126a 583e
00000270: cf2c 6fbc efb8 cbba 6e43 45be c2cd b33d
00000280: 94f7 ecbd bd05 96bb 8b85 bfbe 25e5 f0bd
00000290: 5d78 d53e 08e1 b5bd bfc3 b43d 5bf2 563e
000002a0: af7a 38be 26a6 633e 693b 763d 806a 13bd
000002b0: 45da 3e3d b3f1 8e3e a511 343e f12d ae3d
000002c0: dfc0 dbbc 2b40 403e d69d 58be 1ac5 7d3d
000002d0: d64d 213d ee66 e0bd dbb3 153e fed8 9a3e
000002e0: d6ed 95be a5d6 aebd 005e a9bd b6c6 af3e
000002f0: efc3 3abe eeb6 fcbd f5d8 2f3e 747f 96be
00000300: cb5d 203d 1371 1b3e a22f 36be bb29 463e
00000310: e8e3 36bd aac8 f23e 3438 883c 4eaf abbe
00000320: 2577 163e 07e8 6a3e 665b b33d 2def 66bd
00000330: 8b4f 0b3d 9e0b 213e 7b08 303e 32ed 67be
00000340: 0c74 83bc b79a 563e 6215 19bf 10e5 7f3d
00000350: 02c7 533e d876 85be a8e3 483e 7c32 663f
00000360: 643a 42be 15ad ae3d c2d6 20be 1a50 6cbe
00000370: 0aaf 9dbe 6842 743c d116 ae3e ba03 85bd
00000380: c158 1a3c 8878 ec3c 13cb 043e 1c62 ef3c
00000390: 6547 703e e03c 16bf c3a6 4ebe 29ce 0ebe
000003a0: e45a 123e 0088 b9bc a0c6 a83e b5b7 a4bd
000003b0: 328c db3d f4b9 d63e 74db 693e 4def 8e3e
000003c0: c780 9e3d 52cd 553e 07f9 8d3e be8a 4ebc
000003d0: 7a66 b0be bc09 97be 0623 25be 5685 08bc
000003e0: 9cf5 97bd c931 193d 1872 8d3d 088d b6bd
000003f0: 3279 3fbd bd3e 883d 8162 cbba 66ad cc3e
0.06683544 -0.10234366 0.10122798 0.17776018 0.06279651 -0.011396755 -0.17534195 -0.41923648
-0.062243577 0.3081079 0.152832 0.08197922 0.08666392 0.1818075 0.16616693 -0.1313823
-0.16458845 0.15267201 -0.18594323 -0.22692047 0.031654775 0.23239376 -0.6644795 -0.019479541
-0.23734216 0.33359626 -0.48718032 -0.09489154 0.25128147 -0.47692302 0.116450846 -0.44727156
0.28451568 -0.053274054 -0.08050398 -0.09476 -0.13440903 -0.1562282 -0.048393942 -0.027897408
0.2009513 0.034574922 0.46088022 0.23313206 -0.025798637 0.013545271 0.0733888 -0.23714426
0.16576914 0.00092120067 -0.08620419 0.027054263 0.19496039 0.059769504 0.060863316 -0.2595305
-0.1211649 0.23481125 0.21145928 -0.32083875 0.024516596 0.24264683 -0.22005247 -0.01792934
0.036214717 0.04031098 0.00572429 -0.15959226 -0.001763016 -0.4835844 -0.13331524 -0.3649297
-0.004946179 -0.13470751 0.1028212 -0.047705926 0.09466197 -0.10885412 0.020246232 0.40550742
-0.23946781 -0.029401226 0.027044762 0.13372278 -0.11976143 0.06138489 -0.3529555 -0.6959378
-0.44610542 0.11557425 -0.58749163 -0.16078107 -0.28124627 -0.6385756 -0.39285114 -0.4037861
0.09107609 0.15739748 0.28125 -0.07705383 -0.34503868 -0.31911665 0.13821515 0.1277665
0.060845308 0.2413961 -0.33864897 -0.07436642 0.11399419 0.10857704 0.120283544 -0.10308679
-0.16085488 0.11245959 0.10049094 0.033965237 -0.04694362 0.010381373 0.011022487 -0.124283165
-0.351265 -0.4620171 -0.16786739 -0.31922773 0.045482997 -0.020587288 0.028671281 0.11897524
-0.1561644 -0.38861004 -0.10682837 0.25596693 0.10602815 0.027862014 -0.008184179 -0.120295554
0.061250407 -0.12162696 -0.24519807 0.17730983 -0.029070145 -0.056210615 0.25600213 0.030069986
0.17033383 0.1954365 -0.08327551 0.040942296 -0.17292204 0.08665703 0.29200187 0.47712624
-0.37170354 -0.10646202 0.3414469 0.21134213 -0.014598086 -0.0015542785 -0.19264004 0.087794796
-0.11570659 -0.004578321 -0.37406573 -0.11762456 0.41693392 -0.08880812 0.08826398 0.20990889
-0.1801555 0.2223135 0.06011525 -0.03599024 0.046594877 0.27918777 0.17584856 0.085048564
-0.026825367 0.18774478 -0.2115396 0.06195555 0.03938087 -0.10957132 0.1461939 0.30243677
-0.29283017 -0.08537034 -0.08269882 0.34331292 -0.18238805 -0.123395786 0.17172606 -0.29394114
0.039151948 0.15179853 -0.17791608 0.19351856 -0.044650942 0.4741872 0.016628362 -0.33532184
0.14693888 0.22940074 0.08757667 -0.05638044 0.034011405 0.15727088 0.17190735 -0.22649077
-0.016046546 0.20957457 -0.5979825 0.06247431 0.20681384 -0.26067233 0.19618094 0.89920783
-0.18967587 0.085291065 -0.15706924 -0.23077431 -0.30797607 0.014908411 0.34001783 -0.064948514
0.009420575 0.028866068 0.12968092 0.029221587 0.23464735 -0.5868664 -0.20180802 -0.13945831
0.14292485 -0.022647858 0.3296404 -0.08042852 0.107200995 0.41938746 0.22837621 0.27916947
0.07739406 0.20879105 0.27729055 -0.012606321 -0.34453183 -0.29499614 -0.16126642 -0.008332571
-0.07419893 0.037400994 0.06906527 -0.08913618 -0.04674644 0.066525914 -0.0015517027 0.39976043

actor.init_next_embed.2.add_bias._bias f4 [64, 1]
00000000: 38f2 1dbe 32d9 adbe 6871 47bf ef32 9bbe
00000010: fc90 de3e 343d cdbe 67b9 903e fe2a efbd
00000020: 206e 5bbe a710 55be f86f e5be 804c acbe
00000030: 737c 343f bf25 133f 1106 eb3e 791f 11be
00000040: edcf bebd 7bb1 d9be 5eb9 8fbe 0e01 483f
00000050: f711 bc3e b52b bbbe 9f1d 83be 24ee 803e
00000060: 6d92 103e 28bf f8be 9d55 46be d4f0 a7be
00000070: 9277 34be bdc6 15bf 2053 f43c affd be3e
00000080: cd7a e9be 3616 04bf 432d 183f afbf 593f
00000090: f653 313f ce27 2cbe 63e4 89be 713c 0dbe
000000a0: 1f80 f6bd fce0 233e 4393 a13e 3fc5 573d
000000b0: 7bc0 a03e 0d1b 29be f089 38be 4755 12bf
000000c0: 9dc4 46bd 0ffa 263f 932a d8be 110f 3ebb
000000d0: a129 d13e 9a94 d7be 9d9f 653f 1050 08bf
000000e0: 2679 ab3e 0334 3d3e 6bb1 c4be 04ce 793f
000000f0: b560 83be f0ae f03e d968 82bd 2e07 0c3e
-0.1542443 -0.3395477 -0.7790742 -0.30312297 0.4346999 -0.40085757 0.2826645 -0.11678122
-0.21428728 -0.20807134 -0.44811988 -0.33652115 0.70502394 0.5747947 0.45903066 -0.14172162
-0.093170024 -0.4251822 -0.2807111 0.7812661 0.36732456 -0.36556783 -0.25608537 0.25181687
0.14118357 -0.4858334 -0.19368596 -0.32800925 -0.17623737 -0.58506376 0.029824793 0.3730292
-0.45601502 -0.5159639 0.59444064 0.8505811 0.6926874 -0.1681206 -0.26932058 -0.13792588
-0.12036156 0.16003793 0.31557664 0.052678343 0.3139685 -0.16514225 -0.18021369 -0.5716137
-0.04852735 0.6522531 -0.42219982 -0.002900068 0.40852073 -0.42105561 0.89696676 -0.53247166
0.33490866 0.18476872 -0.3841661 0.9757998 -0.2565972 0.47008467 -0.06367654 0.13674614

actor.embedder.layers.0.0.module.W_query.weight f4 [64, 64]
00000000: 6821 703d 1b87 bebb e5d6 013e 3d0a 13be
00000010: 21a6 8dbc e13b 35bd 1852 10be 01a6 60bd
00000020: 700d b13d 3c8c 8fbd 95f4 bb3d 8723 28bd
00000030: 43b0 e13c 6dfb ad3d e75a 1cbd 8fca 8c3d
00000040: ac56 e43d f1e5 18bd 5174 7cbb fe16 d63d
00000050: 9388 9c3d b62b a1bd 185d c23d 594b 313e
00000060: ffa2 cebd e0b2 2f3e 6934 2a3d c2fc f0bc
00000070: fee6 863d c47e 953d 8484 11bd e845 dc3d
00000080: fd31 d93d 82d0 1cbc 98d2 bcbd 1fc2 a63c
00000090: 6d6f 71bd 8a35 863d 3438 703b 506a d4bd
000000a0: 35c7 843d 9abe a23c 8992 c0bd a98c 963d
000000b0: 6db7 d5bd bd13 92bd 0a3a 4a3d 8177 f3bd
000000c0: 19a2 25bd 89bf 7cbb a616 f43c 7d0d 89bd
000000d0: 3b73 e6bc 349a 8d3d a410 41bc 1ed2 1fbd
000000e0: 002e 213e f9fa 94bd 1d79 c73d 1cea 8dbd
000000f0: 2349 4fbc 8455 2f3d 5cc9 98bd 3039 97bd
00000100: 4c49 d8bd bf43 66bd 1138 8dbd f0a9 c8bd
00000110: 3d0a a2bd e15f 40bc 6752 4c3d af63 223c
00000120: bd56 ce3d 921e 58bd d00a 31bd 899c 2cbd
00000130: c480 0d3d c2cb 303c 037b 9b3d ca1b 23be
00000140: 2661 dbbb 5d6c a53d d9a2 c03d 2fd2 313e
00000150: 2184 3b3d 32c1 663d 5341 cbbd 5209 e6bd
00000160: 56b6 09be 3bb9 f8bd d7c4 0a3e fd1e 07bb
00000170: a96b ef3d 42fd 543c ff5a df3d 61de 30bd
00000180: 9a5f e7bd 374c 20be d66a 42bc d115 813d
00000190: dd7e fd3c e420 03be 1b3e 08be 38bb 80bd
000001a0: 5101 edbd eb9b 0dbc 1e73 cfbd 088d d03d
000001b0: a476 1e3d bb31 0bbe 70b0 61bd 61cd b93d
000001c0: aa06 77bd 3c30 a9bd 2b22 98bd 97dd d5bd
000001d0: 21bc 933c 238d fcba 1f5e 9dbd 6e07 d0bd
000001e0: d2fe a5bd 3155 bb3d 481e 9fbd 4fe3 223e
000001f0: eaa9 42bd 76e4 1f3c e9b6 4cbd 4de5 c43d
00000200: cac8 0bbe 0edf 27bc d638 033c 9d80 923d
00000210: cc5e 083e 2ce3 103d 3f24 0b3c 0a62 ce3d
00000220: 2e2f 78bd d7dc 093d e674 fcbb b288 34bd
00000230: 1518 c33d 01c6 013e a311 c93d ea1b af3d
00000240: 2603 91bc 1b04 023d 97bb 303d 45e3 2b3e
00000250: 22a2 0b3d 8271 ae3d 727a dabd dc41 e8bd
00000260: 9af4 a3bd 1c83 21be 9d16 d03c 55e9 a7bd
00000270: eb87 75bd 6eb9 48bd b92b f33c 78cc 323d
00000280: 89e2 5fbd c6e0 1bbe 3120 bd3d 0cff ca3d
00000290: 0aee 283e 2bcd cfbd 1125 8ebd 59ba 583d
000002a0: 4d90 2e3d 82e3 64bc 794f ab3d c04d c43c
000002b0: b242 11bc 29d7 25be 3d41 213e 751f 123e
000002c0: bebb 9abd 1b2a 9abd 8ab6 00bd cb5f 863d
000002d0: ff10 acbd dc57 433c f879 613d 3983 6dbc
000002e0: 6219 90bc 99d8 853d 2afb 163d 21a8 d83d
000002f0: 5d9c 3ebe 82b6 a8bd 7d48 dbbd 76ac 59bc
00000300: b9a9 c4bc d87f 5abc 5c1c a0bd e176 9e3d
00000310: 034a 223e 952a 073e 81ff 9c3c c0e2 eebc
00000320: 14f6 2ebd 4700 333e 705e 51be f2d7 153d
00000330: 5577 febd 68b2 96bd ca78 1abc 27ca d03d
00000340: c40b dbbd 99f7 6dbc 8109 09bd 9353 8cbd
00000350: 64a3 3cbe ec27 373d 60f9 3cbc 0b25 f6bd
00000360: 3cf2 683e 38d9 1d3d cec5 a6bd fa7d 983d
00000370: bf3e d83d 6e38 02be 3366 cf3c 3b4f 813d
00000380: e4f5 03bd 0ed1 2ebc e67c 8dbd 9806 463c
00000390: 9433 8cbd 8197 083e 56b5 bf3d f0c9 c3bd
000003a0: 720c 00be 8392 c93d 3969 873d d7c5 c2bc
000003b0: d049 d53d f2de 23bd 5a7a 8e3d dc3d f1bc
000003c0: c82b 313b 6f01 80bd 5bd6 803c e67c 07ba
000003d0: 2073 f93d 72ed f13d 9c4a 16bc 27e1 bdbd
000003e0: 9033 2cbd f2b6 3abe 0704 6d3c 4be0 b7bd
000003f0: c0ad ccbc 38d4 84bd 2ddb 4bbd 4ff7 99bd
0.05862561 -0.0058144457 0.12679632 -0.14359374 -0.01729113 -0.044246558 -0.14093816 -0.054845814
0.08645141 -0.070091695 0.0917751 -0.041049507 0.027549868 0.08495221 -0.03817263 0.068745725
0.11149344 -0.037328664 -0.0038521478 0.10453604 0.07643237 -0.07869665 0.094904125 0.17313899
-0.10089683 0.17158079 0.04155389 -0.0294174 0.06587027 0.07299569 -0.035526767 0.10755521
0.10605238 -0.0095711965 -0.09219855 0.020356236 -0.058944155 0.065531805 0.0036654593 -0.1037184
0.06483308 0.019866277 -0.09402949 0.073510475 -0.10435376 -0.07132671 0.049371757 -0.11888028
-0.04043779 -0.0038566312 0.029795956 -0.06692026 -0.028131118 0.069141775 -0.011783753 -0.039018743
0.15740204 -0.07274432 0.097398974 -0.069294184 -0.0126517145 0.042806163 -0.07460281 -0.073839545
-0.10560855 -0.05621695 -0.068954594 -0.09798038 -0.07912109 -0.011741609 0.049883272 0.009911462
0.10075138 -0.05276353 -0.043223202 -0.04214147 0.03454663 0.010790767 0.07591822 -0.1592857
-0.0066949306 0.08077309 0.09406061 0.17365335 0.045780305 0.05633659 -0.09924569 -0.112322465
-0.13448462 -0.12144705 0.13551651 -0.0020617836 0.116904564 0.0129998345 0.10906028 -0.043180827
-0.112975314 -0.15654074 -0.011866292 0.06302989 0.030944282 -0.12805516 -0.13304941 -0.06285709
-0.11572517 -0.008643131 -0.10129379 0.101831496 0.038687363 -0.1359319 -0.055099905 0.09072376
-0.06030909 -0.08261153 -0.07428392 -0.104426555 0.018034043 -0.0019268136 -0.07683968 -0.10157667
-0.08105244 0.09147108 -0.077694476 0.15907024 -0.047525324 0.009759059 -0.049979124 0.09614048
-0.13650814 -0.0102460515 0.008009156 0.07153437 0.13317412 0.035372898 0.008492528 0.10077293
-0.06059187 0.033657875 -0.007704365 -0.044075675 0.09526078 0.12673189 0.09817817 0.08550246
-0.017701697 0.031742197 0.04314765 0.16785915 0.03409017 0.08517744 -0.10667886 -0.11340687
-0.080056384 -0.1577267 0.025401408 -0.081988014 -0.059944075 -0.049004965 0.029683935 0.043652028
-0.0546594 -0.15222463 0.09234656 0.099119276 0.16497055 -0.101465546 -0.069406636 0.05291209
0.042618085 -0.013970258 0.083647676 0.023962855 -0.008865999 -0.16195358 0.15747543 0.14269812
-0.0755534 -0.07527562 -0.031424083 0.0656124 -0.08401679 0.011922803 0.05504796 -0.014496618
-0.017590228 0.06535453 0.036860622 0.10578943 -0.18614335 -0.082379356 -0.107071854 -0.013285747
-0.024006711 -0.013336144 -0.07817909 0.07737518 0.15848546 0.13199838 0.019164803 -0.029160857
-0.042715147 0.17480575 -0.20446181 0.036582895 -0.124251045 -0.07358247 -0.009428212 0.101948075
-0.106956035 -0.014524364 -0.03345633 -0.06851878 -0.18421704 0.044715807 -0.011534065 -0.12018784
0.22748655 0.038537234 -0.08143197 0.07445903 0.10558843 -0.12716839 0.025317287 0.0631394
-0.03221692 -0.01066996 -0.06908588 0.012086533 -0.06845775 0.13339044 0.09360759 -0.09560001
-0.12504748 0.09842398 0.066118665 -0.023775978 0.10414469 -0.04000754 0.069569305 -0.029448442
0.0027034152 -0.062502734 0.015727213 -0.00051684526 0.121801615 0.11812867 -0.009173062 -0.0927146
-0.04204136 -0.1823385 0.014466292 -0.08978327 -0.024985194 -0.0648579 -0.04976957 -0.075178735
