alexfrom0815_O3D-BPP-PCT/Online-3D-BPP-PCT-main/pt_models/PCT_rollcontainer_7200updates.pt (torch, 236314 bytes, 24 tensors)

actor.init_internal_node_embed.0.module.weight f4 [32, 6]
000000 0a 29 92 be 25 1b 08 3d c7 14 bd be dc 89 86 be
       -0.28546935 0.033229012 -0.36929914 -0.26277053
000010 cb f2 94 be 3e f8 10 3e 3b da 9d bd ab d0 83 3e
       -0.29091486 0.14157197 -0.0770764 0.2574514
000020 be 7d 4e be 9c 16 2f be 10 2c 73 be a5 ce 6e be
       -0.20165154 -0.17098469 -0.23747277 -0.23321016
000030 43 18 3e be 6d 87 79 3e 96 49 87 3b 0f 98 51 3e
       -0.18563943 0.24368067 0.004128645 0.20468162
000040 33 19 2d be 8a 5f 16 bf f5 6f e8 3e 73 33 04 be
       -0.16904144 -0.5873953 0.45397916 -0.12910251
000050 fd 5c 54 3d 6c 6d a2 be ba 3b 13 bd f1 a4 03 3f
       0.051846493 -0.31724107 -0.03594563 0.51423556
000060 a6 94 13 be cd d1 56 be bb fc 10 bf af 4e 9e bd
       -0.14412174 -0.2097847 -0.56635636 -0.077298515
000070 85 ce 66 3e 33 08 15 3e ef ce 56 3d f8 9f 2f 3e
       0.22539718 0.14553909 0.05244344 0.17150867
000080 d3 0a a8 3e da af e4 bd a1 4e fb bc 4f 3f ad be
       0.32820758 -0.111663535 -0.030677142 -0.33837363
000090 f1 35 dc 3e 7b 63 a9 3e 6a 91 87 be c3 9c 3b bf
       0.43009904 0.3308371 -0.2647813 -0.73286074
0000a0 a1 53 8b 3c bd 55 24 3d f3 8f 49 3e 07 6e 93 3e
       0.01700765 0.04012083 0.19683819 0.28794882
0000b0 2e 09 2c 3e c1 0c da be b4 fc 0b be 4c d5 a0 3e
       0.16800377 -0.42587855 -0.13670617 0.31412733
0000c0 5b 7c 60 be 37 13 88 3e 56 e1 89 3e ea 81 e7 be
       -0.21922438 0.2657716 0.2692973 -0.45216304
0000d0 4f 76 e9 be e8 9d 05 3f ad 5b a6 3f 02 12 4a bf
       -0.45598075 0.5219407 1.2996727 -0.7893373
0000e0 3d ca 15 3e a6 27 8f bf 11 64 04 3f 75 80 85 3e
       0.14627929 -1.1183975 0.5171519 0.26074567
0000f0 f1 92 f7 bc df 4f 03 3e 13 e4 51 bf fb db 85 3e
       -0.030221434 0.12823437 -0.8198864 0.26144394
000100 77 ff 35 3e 2a 14 3a 3e 2d 52 1a bf 72 85 aa 3f
       0.17773233 0.18171754 -0.6028164 1.3321974
000110 8a 22 71 3d e9 dd 9f 3e 01 5f ba bf d5 6b 95 3e
       0.05887083 0.31223992 -1.4560243 0.29183832
000120 71 04 fc bd b5 32 21 bf e7 c7 8c be e8 89 d7 3e
       -0.12305535 -0.62968 -0.27496263 0.42097402
000130 9a 87 84 be a0 07 41 3e ac 4b 4c 3d 5c a6 03 3e
       -0.25884706 0.18850565 0.049876854 0.1285643
000140 e7 db bd bd 93 dd 77 be 42 d8 84 3e 8c 67 fd be
       -0.09270459 -0.24205618 0.25946242 -0.49493062
000150 da a7 7b 3e 74 33 3b 3d df de 5f 3e 5f c2 3d be
       0.24575749 0.045703366 0.21862362 -0.18531178
000160 c5 65 be 3d ee cb 16 bf 66 27 31 3e 79 f7 01 3e
       0.09296755 -0.5890492 0.17300186 0.1269206
000170 cd b2 fe 3d 34 09 ca bd 8d b6 61 be c7 1d 8d 3e
       0.12436447 -0.098650366 -0.22042294 0.2756178
000180 9c fa 01 bf 97 57 f5 bd b6 be d6 be b5 df a5 be
       -0.50773025 -0.11979597 -0.41942376 -0.32397237
000190 51 90 2f 3e ba 39 ab 3d c5 71 5c bd 92 26 a4 3c
       0.17144896 0.0836062 -0.053819437 0.020037923
0001a0 cb a4 ee 3d 37 18 9a bd 32 7b b3 bd 38 e9 47 be
       0.116525255 -0.0752415 -0.08763732 -0.1952256
0001b0 62 3c 29 bc 34 83 d3 be 20 d3 c3 be d2 23 46 be
       -0.010329338 -0.41311038 -0.38247013 -0.19349602
0001c0 81 7b 3d be 3e 48 43 be 79 c7 66 3d 71 fe 91 3e
       -0.18504144 -0.19070527 0.056342576 0.28514436
0001d0 65 2d 8d bf 44 71 3c be 47 88 ec bd 43 6d 51 3e
       -1.1029478 -0.18402582 -0.1154943 0.20451836
0001e0 53 75 c2 3d ce 57 d0 bd 98 03 01 bc 8a 89 cd be
       0.09495034 -0.101729974 -0.007874392 -0.40143996
0001f0 38 3c be be 69 05 dd bc 87 47 3e be 25 ce f2 bd
       -0.37155318 -0.026980119 -0.18581973 -0.11855725
000200 d1 3a 2e bf d5 17 3a bc 73 ee 87 3d 16 28 fa bd
       -0.68058497 -0.011358221 0.066372775 -0.12214677
000210 bd 80 35 bf 29 52 15 bf df 17 81 be a0 0d cb 3e
       -0.70899564 -0.5832849 -0.25213525 0.39658833
000220 1d c0 26 3f 70 66 39 be 07 55 29 3e de 5d 16 3e
       0.6513689 -0.18105483 0.16536342 0.14684245
000230 44 02 6c be d0 c2 3b bf 70 0d 71 bf a7 d8 4e be
       -0.2304774 -0.73344135 -0.9416113 -0.20199834
000240 60 70 9c 3d 97 4c 2d be f1 74 e7 3e d3 9a 9d 3d
       0.07638621 -0.16923748 0.45206407 0.07695546
000250 f0 83 6d 3d 08 84 f8 be 13 2f 21 3e 08 3b 4b be
       0.057987154 -0.48538232 0.15740614 -0.19846737
000260 c2 32 6d bd a2 c5 19 3e fe 25 26 3e 6d a5 58 be
       -0.057909735 0.15016797 0.1622543 -0.21156855
000270 16 54 fa 3e 8d 77 d0 bd e3 d2 47 3d 3b 43 bd 3e
       0.48892277 -0.101790525 0.0487851 0.36965355
000280 52 ca e2 be 8d 00 da bd b6 08 48 b8 9f 99 1d 3e
       -0.44294983 -0.10644636 -4.769183e-05 0.15390633
000290 6d 32 3e be e1 4a 06 3f 96 ea 1d bb 35 a2 b1 bd
       -0.18573923 0.52458006 -0.0024096123 -0.08673517
0002a0 fe e2 ca 3d 64 de 9a bd d7 2c a8 be 66 04 1f 3e
       0.099065766 -0.07561949 -0.3284671 0.15529022
0002b0 f6 06 4a 3e 65 a8 06 bf 0d be 87 3e da 6d 98 be
       0.19729218 -0.526007 0.26512185 -0.2977131
0002c0 9a 9d 91 be 74 ae d5 bd 60 b6 02 be cd e3 b6 be
       -0.28440553 -0.10433665 -0.12764883 -0.35720673
0002d0 b4 5e e3 be 2d 0d b5 be 59 49 be 3e 8c 1a 33 3e
       -0.4440819 -0.35361615 0.37165335 0.17490596
0002e0 94 23 80 be 73 0d c1 be 62 e5 d2 bd 32 14 5c 3e
       -0.25027144 -0.37705573 -0.102976575 0.21492079
0002f0 12 c2 49 3d b0 17 4d 3d d6 44 34 be cd a8 88 be
       0.049257345 0.05007142 -0.17604384 -0.26691285

actor.init_internal_node_embed.0.add_bias._bias f4 [32, 1]
000000 65 d5 78 be 65 af 9a bc 5c 81 41 3d b3 1d 57 3d
       -0.24300154 -0.018882463 0.047242507 0.052518558
000010 97 2a 37 3e d6 ca bc bb cb 41 51 bd b8 c0 89 3d
       0.1788734 -0.0057614846 -0.051088136 0.06726211
000020 f2 3e cd bd 3f 25 78 3d 43 3f 9a 3b ce 78 b9 3d
       -0.100217715 0.060582396 0.0047072484 0.09056245
000030 4a 7a 17 bb 0d 2e 68 3a c7 7a b8 3d 6a b1 81 3d
       -0.0023113661 0.000885696 0.09007793 0.06332667
000040 32 de 91 3d 0b 31 5b be 43 26 dd bb d4 6b 94 3d
       0.071224585 -0.21405427 -0.006748946 0.07247129
000050 9c ef b1 3d 31 22 f3 3d b0 f3 46 3e c5 41 41 3e
       0.0868828 0.11871756 0.19428897 0.18872745
000060 c8 98 fe 3c 91 d7 12 bd 2c 8f 9f bb 16 b0 e4 3d
       0.031078711 -0.03585011 -0.0048693623 0.11166398
000070 66 17 45 be bd 6a 8d 3d ac a9 ed bc a6 fb 2c 3d
       -0.19247207 0.06905124 -0.02901157 0.04223218

actor.init_internal_node_embed.2.module.weight f4 [64, 32]
000000 87 73 fb 3d 15 c0 35 3e d0 4b 3a 3e 64 34 b0 3d
       0.122778945 0.17749055 0.18192983 0.08603743
000010 89 8e 52 bd 66 80 12 3e 1b b6 6b 3d 86 2c d2 3e
       -0.051405463 0.14306793 0.057546716 0.41049594
000020 4d 7f 00 3e ce 5f d5 3d 93 c1 c1 3e 14 96 a8 bd
       0.12548561 0.10418664 0.37842998 -0.0823175
000030 da cc ea bb 64 02 0e bd 13 98 a5 be 5a 09 7b 3d
       -0.0071655335 -0.03467025 -0.32342586 0.061288215
000040 be 9b 01 3d 33 93 8e 3d 03 e0 3b 3d c8 e5 1d 3e
       0.031642668 0.0696167 0.04586793 0.15419686
000050 2f 6c 42 be 05 2d 6f 3d 25 1c 08 3f f9 8c 58 bd
       -0.18986581 0.058392543 0.53167945 -0.052868817
000060 09 a9 16 3e b7 25 2c 3d c1 84 a4 bd a6 f4 e2 3d
       0.1471292 0.042028155 -0.08033133 0.11081819
000070 df 0c a1 3d af 4f c1 bd 96 c8 9d 3b d5 5b 04 3d
       0.07863783 -0.094390266 0.0048151715 0.03231414
000080 b4 d8 72 3e 26 0d 72 3d e5 6f 8f be 78 af e6 3d
       0.23715478 0.05909457 -0.28015056 0.11263937
000090 07 60 d1 3e ec af 8e 3e c3 44 b3 3d ae c3 49 3e
       0.40893576 0.27868593 0.0875335 0.19703552
0000a0 53 a8 38 3e 47 41 23 3e 25 b7 58 3e a7 5d a3 3e
       0.1803296 0.1594287 0.21163614 0.3190739
0000b0 76 6a 81 3e d3 b5 c5 3d c9 6c c2 3d 35 15 86 3e
       0.25276536 0.09653821 0.09493405 0.26188055
0000c0 02 d9 82 bd b6 8c e8 bc 0b c7 29 be 22 71 67 be
       -0.06389047 -0.028387409 -0.16579835 -0.2260175
0000d0 4a 72 b5 3d 7e 37 21 3e 5d f0 ee 3e 49 b1 66 3e
       0.088596895 0.15743825 0.46667758 0.22528566
0000e0 c2 d7 4f 3e 7c dd 98 bd 1f 24 5c 3e aa 1f a3 3d
       0.20297149 -0.0746412 0.21498154 0.07965024
0000f0 5e ce 46 3d bc f3 09 3e 0c 59 0d be 12 64 ed bd
       0.04853665 0.13471884 -0.138035 -0.115913525
000100 c0 df 80 be f1 88 18 bd 81 5d db 3e f5 57 30 3d
       -0.25170708 -0.037239973 0.42844775 0.043052632
000110 67 7f af 3b 72 fd ee 3c 58 b1 8c 3c fd 2e 26 3e
       0.0053557637 0.029173587 0.017174408 0.16228862
000120 4c 10 9d bd 1e f1 98 bd 44 2f 43 be dd ff 20 be
       -0.07669124 -0.074678645 -0.19060999 -0.15722604
000130 06 ac c2 bd aa 83 e1 3d 3a 3c 14 3e 6e 20 db bd
       -0.09505467 0.11011441 0.144761 -0.10699545
000140 21 3f 17 be 15 33 51 3e 45 3f 07 3d 8e fd ed bd
       -0.14770176 0.20429642 0.033019323 -0.11620627
000150 2c fe 3e bc c1 1a 0e 3e 40 c1 fe 3b cd 3f 8b 3d
       -0.011657279 0.13877393 0.007774502 0.067992784
000160 6e 3d 3e bd 6b 6a dc bd a4 05 14 3e 0a a3 ef 3c
       -0.046445303 -0.10762485 0.14455277 0.029252548
000170 2e 8e ad 3e 7d 49 51 3d c3 3b 32 3e 08 87 47 3d
       0.33897537 0.051095475 0.1740561 0.04871276
000180 58 6d a3 bd f0 0c 4e be 6d e2 b4 3c 69 ea f8 3e
       -0.0797984 -0.20122123 0.022080624 0.4861634
000190 67 cb c8 be 06 4b 8f bd 47 9e ef 3c 8d 28 ed 3c
       -0.39217684 -0.069967315 0.029250277 0.02895
0001a0 5c cc da 3e cf c5 c1 3e 15 e0 e1 3d 2e c6 ba 3e
       0.4273404 0.37846228 0.110290684 0.36479324
0001b0 b5 6d cc be 92 5d 96 3b 64 81 b6 be 72 53 15 3e
       -0.3992745 0.004588791 -0.35645592 0.14582613
0001c0 d1 fe 9e 3c c3 77 a8 be eb cf 9b 3d d5 37 7c 3d
       0.019408615 -0.3290387 0.076080166 0.061576683
0001d0 0f a4 91 be 5c 61 20 3e 3a 24 cd be 36 a9 10 3d
       -0.2844548 0.1566214 -0.400667 0.035317622
0001e0 9b 0c 4d 3e 34 86 3c be f5 b0 c3 3d eb 23 d2 bd
       0.2002434 -0.1841057 0.09555236 -0.10260757
0001f0 68 ce 0d 3e 39 eb 17 bd 48 31 0f be 93 b2 83 3e
       0.13848269 -0.03708956 -0.13983643 0.2572218
000200 d9 a7 9e 3e 3e 56 be bd 77 c4 f9 bd 78 3e 5f bd
       0.30987433 -0.09293793 -0.12195676 -0.054502934
000210 9a 63 e7 be bc 65 72 bd c6 29 c1 3b 83 7b 9e be
       -0.45193177 -0.059179053 0.0058948724 -0.30953607
000220 75 88 8a be a1 f0 81 3e 5e 10 7a be 0a 62 22 3d
       -0.27057233 0.25378898 -0.24420306 0.03964428
000230 a5 7c 98 be 05 fc 5c be dc f2 02 3d 46 81 80 be
       -0.29782596 -0.21580513 0.03196989 -0.25098628
000240 86 2b e8 bc 68 f1 28 bd ca ea 12 bc 7e 90 a4 be
       -0.028341066 -0.041245848 -0.008967111 -0.3214149
000250 bc 96 0e be 83 da 04 3d 5f 0d 19 bf 35 a7 d9 bd
       -0.13924688 0.03243495 -0.5978603 -0.10627595
000260 32 6e a4 bd c8 63 03 3e 8b 5d 91 3e 67 2e 70 be
       -0.080288306 0.12831032 0.2839168 -0.23455201
000270 ef 3b 0e be d5 c8 fc bd 82 4e 1e 3e a3 66 ea bd
       -0.1389005 -0.12342993 0.15459636 -0.11445358
000280 25 d0 18 be 7b 4b c6 bd 57 e5 88 3e 9e d4 80 be
       -0.14923151 -0.096823655 0.26737472 -0.25162214
000290 69 59 b3 3e f8 36 fd bd 43 7f 2d bd 21 da f4 bd
       0.35029152 -0.12364 -0.042357694 -0.11955667
0002a0 9e de 73 be 57 63 f0 be b0 7c ce 3e 4c 86 9d be
       -0.2381539 -0.4695079 0.40329504 -0.30766523
0002b0 ea e0 66 be ea 30 19 be 88 97 30 3e 17 bf 71 3c
       -0.22546735 -0.14960065 0.17245305 0.014755032
0002c0 d3 ff 07 3e 6d 35 c7 3d 0d 74 26 3d 0c 69 91 3a
       0.13281183 0.09726987 0.04063802 0.0011093928
0002d0 9a ed c6 bd cd ca 32 be de bc b7 3e 94 66 d2 bd
       -0.09713288 -0.17460175 0.35886282 -0.102734715
0002e0 21 43 0f 3e 2a e2 3c 3e 66 7e 58 3e 76 c9 9b 3e
       0.13990451 0.1844565 0.21141967 0.3042714
0002f0 ee d8 e2 be 85 81 15 bd 6e 10 8a 3e 2f 34 9e 3e
       -0.4430613 -0.036500473 0.2696566 0.30899188
000300 7d d4 a1 3e 97 08 b5 bb 84 15 1e be 59 5c 0a 3f
       0.31607428 -0.0055247056 -0.15437895 0.5404716
000310 3a 67 63 3e cc ee 87 bd 0c ab b8 bd dc 13 0d 3f
       0.22207347 -0.06637344 -0.090169996 0.5510843
000320 95 4f 46 3e c5 ec e5 3e f8 36 6c 3d 0b 44 06 3f
       0.19366296 0.44907203 0.05766961 0.52447575
000330 4d 08 a3 be b6 18 20 be d6 ed a0 bd c8 52 ef bd
       -0.3184227 -0.15634426 -0.078578636 -0.11685711
000340 2b 30 6e bd 57 0a 81 be 6a c8 32 3c 9a f6 65 3c
       -0.058151405 -0.252032 0.01091204 0.014035845
000350 64 90 e0 bc c1 79 8f be 60 53 43 be fa 23 82 3d
       -0.0274126 -0.28022578 -0.19074774 0.06354518
000360 13 0f 5d be 84 11 7f bd e6 48 46 be d5 12 53 3d
       -0.21587782 -0.062272564 -0.19363746 0.05153163
000370 4e 51 7d be 43 2d b1 3c 57 20 0f be 97 42 2d be
       -0.24738047 0.021628028 -0.1397718 -0.16919933
000380 c0 95 0e be 63 ce ed bd 5d d1 9b be 08 b4 ca 3d
       -0.13924313 -0.11611631 -0.3043317 0.098976195
000390 ef f8 9b 3e 51 ff 52 bd 18 7f ca bd 02 20 c4 3e
       0.3046336 -0.05151302 -0.098875225 0.3830567
0003a0 9e 45 75 bb 8e a2 99 be 02 ab 38 bc 90 fb 0b be
       -0.0037425528 -0.30006832 -0.01127124 -0.13670182
0003b0 10 8c 57 3d 3c 3f a5 3d 98 4b 90 be 18 d7 b2 b9
       0.05262381 0.080687016 -0.28182673 -0.00034111063
0003c0 ea 5f d5 bc 3a f2 b1 be 42 64 2e 3e 6d fd 73 bd
       -0.026046712 -0.34755117 0.17030433 -0.059567858
0003d0 68 d2 e4 bd aa dd c1 be 3d 68 b8 3e ea 56 11 bf
       -0.11172944 -0.3786443 0.36017027 -0.56773245
0003e0 9f fb 41 bc 7f 70 7d 3d ad 31 51 3d 00 25 37 3e
       -0.011839776 0.061874863 0.051072765 0.17885208
0003f0 f0 fe bb 3d 84 94 04 3e 53 2e 4b 3e 7c fd 7e be
       0.09179485 0.12947279 0.1984189 -0.24901384

actor.init_internal_node_embed.2.add_bias._bias f4 [64, 1]
000000 bc f8 19 3e 33 70 b8 3e 62 2b 67 3e 10 9c b9 be
       0.15036291 0.360231 0.22575143 -0.3625188
000010 25 e3 26 bf 91 6f c4 bc 6d 88 fa 3d b8 34 76 bc
       -0.65190345 -0.02397898 0.122330524 -0.015027218
000020 29 f5 32 3e 3b e3 b4 3e 67 7d 27 be 58 56 7d 3e
       0.17476334 0.35329613 -0.16356431 0.24739969
000030 8f d4 c3 be f8 fc b5 3e ed d5 52 3e 1b b8 46 bb
       -0.38248107 0.35544562 0.20589419 -0.0030322138
000040 59 4d 0f 3e 07 ca d6 3e 88 c7 26 be ce 66 85 3d
       0.1399435 0.4195101 -0.16287053 0.06513749
000050 ea 39 66 be b2 62 61 3c f6 63 66 bd 5e a3 88 be
       -0.2248303 0.013756441 -0.056247674 -0.2668714
000060 de 07 99 3e 99 e5 c3 be 1a 7a 72 3e 5d 51 ce 3c
       0.29888815 -0.38261107 0.2367939 0.025185281
000070 68 56 a5 be 23 66 4f 3e 94 fb 84 3e e0 e5 85 bd
       -0.32292485 0.20253806 0.2597319 -0.06537986
000080 94 fd 9e bc 9d 37 29 3b 5d 19 e4 3c e6 31 fd 3d
       -0.019408025 0.0025820502 0.027844125 0.12363033
000090 fb 57 f0 3e ed ce f7 3d 64 09 5a 3e ac 5c 37 3d
       0.46942124 0.12100015 0.21292645 0.044766113
0000a0 5e 20 38 bf 67 97 b3 3e 08 4a dd be 95 96 cd be
       -0.7192439 0.35076448 -0.43220544 -0.40153947
0000b0 84 4b 95 3d b0 11 85 bc 16 61 d2 3e 90 e1 ac 3e
       0.07289794 -0.016243786 0.41089696 0.3376584
0000c0 a9 0c 8a 3e 19 6c b9 be 82 a5 8d be d4 3a 1c bf
       0.26962784 -0.36215284 -0.27665335 -0.61027265
0000d0 ef b4 67 3c 21 00 e5 bd f8 ad 5f 3e e4 e1 4e be
       0.014142259 -0.11181665 0.21843708 -0.20203358
0000e0 36 96 8a 3d fb be 28 be 01 6f 46 3c 20 0b dd bd
       0.06766932 -0.16479103 0.012111426 -0.107931376
0000f0 bc 63 5d be 00 3f ea bd b5 85 4f be c4 c4 1d 3e
       -0.21620077 -0.114377975 -0.20265849 0.15407091

actor.init_leaf_node_embed.0.module.weight f4 [32, 8]
000000 d4 8c 4a bd e5 fc 91 be dd 3c f8 be b9 99 8d be
       -0.04945071 -0.28513256 -0.48483935 -0.27656344
000010 d8 89 ea 3b 86 f8 54 3e ae ba fd 3e 63 07 8a 3e
       0.0071575455 0.20797929 0.49556488 0.2695876
000020 f0 b0 39 bd b7 ca ba be 87 54 06 3d a7 a6 0f be
       -0.045334756 -0.36482784 0.032795455 -0.14028417
000030 92 72 45 be f7 ec 2b 3e c7 d3 b4 bc e6 bd ba 3e
       -0.19281986 0.16789614 -0.02207364 0.36473006
000040 7c c2 4a 3e 95 a4 b9 be 2e 91 ee bd e2 c0 ce 3e
       0.19800752 -0.3625838 -0.116487846 0.40381533
000050 e3 f7 4c bd ff 7a bc be 02 2d 68 bd 7e 1e 8a bd
       -0.05004109 -0.3681259 -0.056683548 -0.06744097
000060 2a 92 ce be a8 7b 5a be d9 e2 57 be 29 f3 c7 be
       -0.4034589 -0.21336234 -0.2108263 -0.39052704
000070 2a 23 c2 3e 01 b7 2b 3d 91 0d e7 3e ae e4 e9 3d
       0.37917453 0.041922573 0.45127538 0.1142057
000080 55 62 91 be c1 05 11 bf 09 e1 ad 3e b7 90 71 3e
       -0.28395334 -0.56649405 0.3396075 0.2359036
000090 e7 9e ef 3e 1a e2 16 3e 06 50 ff be a2 52 c8 3e
       0.4680092 0.14734688 -0.4986574 0.39125544
0000a0 02 0a c3 bd 45 c3 07 3e 56 68 51 bf 81 f1 85 3e
       -0.09523393 0.13258083 -0.8179983 0.26160815
0000b0 7a 52 b0 be 9f cf 86 3e e8 ad fa bd 8b 8a 83 be
       -0.34437925 0.26330277 -0.12240201 -0.25691637
0000c0 f9 7a a4 be 2a 21 49 be 2e ff 45 bb 9b ec 32 3d
       -0.3212507 -0.19641557 -0.0030211913 0.043682676
0000d0 59 8f ef 3d 84 da 6c be 62 68 cc bd 84 15 e0 bd
       0.11697263 -0.23130232 -0.09980847 -0.10941604
0000e0 62 98 72 3e d7 35 ae be 60 40 45 3c 2d 3e 3f 3f
       0.23690942 -0.34025452 0.012039274 0.7470425
0000f0 36 e0 47 be 51 5a b8 3d 1e 1e 38 3d 1c c2 66 3e
       -0.19519123 0.090016015 0.044950597 0.22534984
000100 0f e9 27 be 41 21 65 be e0 81 cb be b5 35 1c 3f
       -0.16397499 -0.22375967 -0.39747524 0.6101945
000110 f9 66 f0 3e 93 be 8a 3e 68 12 fb 3e 09 2f b2 3e
       0.46953562 0.27098522 0.4903748 0.3480151
000120 0b 33 e3 bd a1 cf a2 3e d1 e5 18 be e9 c0 a7 3e
       -0.1109372 0.31799033 -0.14931418 0.32764366
000130 b6 aa 1d 3d f2 49 62 be b3 a1 e7 3e cc 05 99 be
       0.03849288 -0.2209852 0.45240554 -0.29887235
000140 13 76 e0 bd 5f b3 14 be 90 f1 d2 3d 7b 8e 3d 3d
       -0.10960021 -0.1452155 0.10299981 0.046278458
000150 af e4 36 3f e0 d8 95 bd c6 b2 45 be e9 61 ad 3c
       0.71442693 -0.07316756 -0.19306478 0.021164851
000160 84 c5 22 bf b6 cd 5b be 69 88 83 3e 08 a5 12 3e
       -0.63582635 -0.21465191 0.2569001 0.14320767
000170 a0 73 2b 3f 38 3e 22 3e 92 83 88 bc 1d 41 b7 be
       0.66973305 0.15844047 -0.0166643 -0.35791865
000180 10 ec f1 3e b0 44 c4 3e e9 8e f3 3e 11 f1 bc be
       0.47250414 0.38333654 0.4756997 -0.3690267
000190 29 bd 49 be 3b 15 7f 3d 2f f3 bb 3e 26 c1 ee bd
       -0.19701065 0.062276106 0.36708972 -0.11657934
0001a0 a2 46 a6 3d 83 c4 9f 3e 7f 4d 19 3f d0 9f d5 bd
       0.08118941 0.31204614 0.59883875 -0.104308724
0001b0 45 e5 d9 be 38 ec 85 be c2 2c b6 3e a7 2a 9c 3d
       -0.4255773 -0.26156783 0.35581023 0.07625323
0001c0 42 5b 85 be 98 e8 05 3f e0 74 c1 3d 9d e3 34 3f
       -0.26046187 0.52308035 0.0944612 0.7065981
0001d0 86 31 af be b2 c6 45 3e 15 43 e9 3d af f0 94 bd
       -0.3421747 0.19314077 0.11389748 -0.07272469
0001e0 0f df cf 3e dc 12 f2 3c 9a cd 9e be 12 6f f5 be
       0.40599868 0.029550008 -0.31016237 -0.47936302
0001f0 50 11 79 3e 48 68 af 3e 66 4a 12 3d d1 02 9c be
       0.2432301 0.34259248 0.035715483 -0.304709
000200 32 7a fc bc 79 9d 4a 3d 24 64 4a be f1 f7 b9 3e
       -0.030819986 0.049466584 -0.19764763 0.36321977
000210 df 0b 10 3e 6f dc 62 be e1 f7 77 be b6 90 a0 3d
       0.14067028 -0.22154401 -0.24215652 0.078401014
000220 0b a3 04 be 78 9c a2 3e 0c 47 0a 3d 92 02 dd 3d
       -0.12952821 0.3176 0.03375916 0.10791506
000230 41 2b 88 be b3 e5 99 bc 66 e4 3d 3e c9 6e 93 3e
       -0.265955 -0.018786287 0.18544158 0.2879546
000240 34 ca d2 be c1 51 a6 bd 0d cd 96 be dc be 87 be
       -0.41169894 -0.08121062 -0.29453316 -0.26512802
000250 80 8c 99 be dd cc b0 3e 58 bb 48 3d 23 d3 f4 3d
       -0.29990005 0.34531298 0.04900679 0.11954334
000260 d4 c0 56 bf 97 37 c6 be 18 cd 9a be 07 cc 37 3f
       -0.8388798 -0.38714287 -0.302346 0.71795696
000270 f2 de 21 3f fc 77 fc 3e ae 72 b7 bd ba 1a d9 3d
       0.6323081 0.4931029 -0.0895742 0.10600801
000280 54 ef 2a be e8 23 66 be 6d 3f 04 bf 32 fc 8a bd
       -0.16692859 -0.22474635 -0.5165928 -0.06786384
000290 c5 1a 64 3e 22 04 86 3e a2 a5 10 be 68 2f 86 be
       0.22275837 0.26175028 -0.14125684 -0.26208043
0002a0 d5 29 05 3e 19 0b df bd b4 6e 2c 3e 2a ac 10 be
       0.13004239 -0.108907886 0.16839105 -0.14128175
0002b0 63 ce d3 bc 3b 8b 76 be 4e a6 47 be a9 99 6d 3d
       -0.025855249 -0.2407655 -0.19497034 0.05800787
0002c0 3e 49 20 bf 8f e2 c2 3d 68 46 37 3e fd 6d 06 3f
       -0.6261176 0.09515869 0.17897952 0.5251158
0002d0 f9 54 d0 3e 16 09 a5 bd ca c9 f1 3d 45 63 07 3e
       0.4068983 -0.08058374 0.11806066 0.13221462
0002e0 83 e7 ab bd 0e 31 e8 3d f2 63 55 3e 0f 38 97 be
       -0.08393767 0.113374814 0.20838907 -0.29534957
0002f0 8a ef 3f 3e 25 ad 77 3c 7f a2 17 bd 2a 7b 7e bd
       0.1874372 0.0151169645 -0.037020203 -0.062129177
000300 83 81 76 3e 38 06 7f 3e 24 71 c0 3e d3 ce cf 3d
       0.24072842 0.24904716 0.3758632 0.101468705
000310 83 0a ed 3c 3b 37 0b 3d 4f bb 8c bc d6 e8 fc 3e
       0.028935676 0.03398822 -0.01717916 0.4939639
000320 ee 47 9f 3e 7e 6e 84 3e ae 01 cf be 8d 15 99 be
       0.31109565 0.2586555 -0.4043097 -0.29899254
000330 8f e5 93 bd 52 0b 76 bb 3c cb 3f 3d 11 97 99 be
       -0.07221519 -0.0037543369 0.04682468 -0.29998067
000340 f9 bb 5b 3e 65 ee 99 be e9 82 3c 3e b2 78 ca 3e
       0.21458425 -0.30064693 0.18409313 0.39545208
000350 6e 64 88 3e 64 09 64 3e 38 f3 e3 3e 1c 7b 8e be
       0.26639122 0.22269207 0.445215 -0.278283
000360 1f bd 46 3d 99 d7 05 bf 18 b7 3b bf f5 6e c9 bd
       0.048520204 -0.522821 -0.73326254 -0.098356165
000370 8a 0d e9 3e cb 61 c2 3c be 31 5e 3e ef 74 ba 3e
       0.45518142 0.023728272 0.21698663 0.36417338
000380 93 ed ae 3e b2 b6 17 be 3e 48 15 be de d5 8f bd
       0.3416563 -0.14815786 -0.1457834 -0.07023214
000390 cf 72 a3 3c 5d 93 ae be c0 58 d1 3d 27 06 50 3e
       0.019952206 -0.34096804 0.10222006 0.20314847
0003a0 fa 38 17 3e a0 a1 d4 3e 6e 69 54 bd 92 16 6b be
       0.14767829 0.4152956 -0.051858358 -0.22957829
0003b0 4a 71 d0 3e b0 90 44 bd 3e 4b 5e be 91 dc 28 3e
       0.40711433 -0.047989547 -0.2170839 0.1649039
0003c0 b8 5e a2 3e cd fb fe 3e b2 5a 01 bf 89 5b 44 be
       0.3171289 0.49801484 -0.50529015 -0.19175543
0003d0 2d 87 69 be d1 a7 87 be 7d 0d 10 bd 5e 9f e9 3e
       -0.22805472 -0.2649522 -0.035169113 0.456294
0003e0 ab d1 fd 3c 79 ae 31 3f 7c d6 c8 be 0b fa 47 3e
       0.030983767 0.6940685 -0.3922614 0.19528978
0003f0 dd a0 fa 37 e8 cb c7 3e 44 3c 30 3e b9 d1 c6 bd
       2.987723e-05 0.39022756 0.1721049 -0.0970797

actor.init_leaf_node_embed.0.add_bias._bias f4 [32, 1]
000000 62 3a d5 bd 10 3f 33 3c 63 34 52 bd ec 3f 67 3b
       -0.10411526 0.010940328 -0.05131949 0.0035285903
000010 b8 2b d2 bd 8b 26 0b be 5b b9 50 bd 18 ca 2d be
       -0.10262245 -0.13588922 -0.05095802 -0.16971624
000020 49 2e 59 3e eb a3 c8 bc f4 64 9c 3b 98 21 e7 bb
       0.21209063 -0.024492225 0.0047727767 -0.0070535652
000030 8b 39 6c 3d 81 d5 6f bc b0 39 86 bd ba 45 a2 bd
       0.057672065 -0.014638306 -0.06553972 -0.079234555
000040 05 85 61 be 27 26 63 bd 2d a7 56 3d d0 4a 93 3d
       -0.22023399 -0.055456307 0.052405525 0.07192004
000050 43 84 79 bd fd 29 bc bd a5 3f da bb c6 29 19 bb
       -0.06091715 -0.09187696 -0.006660419 -0.0023370846
000060 8b 72 17 3c 66 11 35 3c 73 fe 33 3e 21 0c 84 bc
       0.009243618 0.011051511 0.17577533 -0.016119065
000070 75 35 a7 bc 98 b9 46 3b 01 2e 4b bd 85 dc b0 bd
       -0.020411232 0.0030323025 -0.04960442 -0.08635811

actor.init_leaf_node_embed.2.module.weight f4 [64, 32]
000000 d5 ef a4 bd ca 02 7d 3e 82 3c b3 3b ed 6a d4 bb
       -0.08053557 0.24708095 0.0054698596 -0.006482473
000010 a9 af 8f be 26 2a b0 3e fc 97 91 3e 2c 77 7c be
       -0.28063706 0.34407157 0.28436267 -0.24654835
000020 4c b1 93 be 2f b3 a6 3d f6 3a 11 bc a6 c6 47 be
       -0.28846204 0.08139645 -0.008864155 -0.19509372
000030 b0 8e 60 be 79 7a 96 bd 26 e0 4e 3e 26 6a 91 bd
       -0.21929431 -0.073475786 0.20202693 -0.07100324
000040 ed de 81 bd 89 52 9f bd 00 78 a8 3e 79 7c fc 3d
       -0.06341348 -0.07779414 0.32904053 0.12328429
000050 8e 9b 26 3e bb f6 29 be 00 d6 d0 3e aa b9 73 3e
       0.16270277 -0.16598026 0.4078827 0.23801294
000060 e9 35 15 3e 11 33 4e 3d 14 c9 2f bd 4e ad 14 3e
       0.14571346 0.05034167 -0.042916372 0.14519235
000070 a5 11 d7 bd 38 48 0f 3e e0 cb 41 3e 00 11 1d be
       -0.10501412 0.13992393 0.18925428 -0.15338516
000080 3a 24 21 be 83 d2 5b 3c 87 a5 d5 bc 14 86 da bb
       -0.15736476 0.013416889 -0.026079906 -0.0066688154
000090 65 7d ae be 73 40 41 3e 56 96 7e be ae 03 8f 3e
       -0.34080043 0.18872242 -0.24862036 0.27932495
0000a0 35 f7 26 3e 61 3b 8c be 06 aa f8 3c 8b 3b c5 be
       0.1630524 -0.27389053 0.030354511 -0.3852199
0000b0 ad 3a fb bc 0f d2 af 3e d1 8f ef bd e6 eb 80 bc
       -0.030667627 0.3433995 -0.11697353 -0.015737485
0000c0 b2 61 84 3e 58 09 ee 3d b9 9e ab bd bd e6 09 bf
       0.25855786 0.11622876 -0.08379883 -0.53867704
0000d0 69 3d 96 3d 62 c0 84 3e d6 64 82 3d 05 6f bd 3e
       0.07335932 0.25928026 0.06366889 0.36998764
0000e0 52 ef 9b 3d bb 4e 90 3d 8e c7 c0 3d e8 5f 97 3d
       0.07614006 0.07046267 0.09413062 0.073913395
0000f0 8d 10 af 3d d4 60 e9 3c 20 9e 86 3e fa 29 54 be
       0.08548079 0.028488554 0.26292515 -0.20719138
000100 c1 de 88 be 79 5d df 3d 52 ea aa bc e2 f1 d6 be
       -0.26732448 0.109065 -0.020863686 -0.41981417
000110 52 4c 3f bd 1c 5d a8 be 15 8a da bd 27 b6 44 bd
       -0.046703644 -0.32883537 -0.10670868 -0.048025277
000120 ee f1 8a 3d 73 75 d8 3e 5d c9 02 be 4d 82 ed bd
       0.06784426 0.42277107 -0.12772126 -0.115971185
000130 e8 11 3b be dd 85 88 bc 3e 01 9a 3c 57 3d 08 3d
       -0.1826855 -0.016665393 0.01879942 0.033261623
000140 84 e6 39 be bf 78 f4 bd 36 a9 35 3e 3c 9e f1 38
       -0.18154341 -0.11937093 0.1774033 0.00011521249
000150 e2 2d 91 be b5 61 51 3d 8d bf 0c 3d 25 74 05 3d
       -0.28355318 0.05111857 0.034362365 0.032581467
000160 86 d5 eb 3d a9 74 b4 3d 70 44 2e 3d 8a f8 91 bd
       0.11515336 0.08811314 0.042545736 -0.07127483
000170 dc 30 2d be 7c f5 c7 bd a3 cf fb be a6 56 cc bd
       -0.1691317 -0.09763619 -0.49181852 -0.099774644
000180 e0 07 d6 3d 2b 86 1b 3d 7b e9 ab be c4 bf ef 3e
       0.10450721 0.03796975 -0.3357657 0.46825993
000190 fc 48 e1 be b6 1b d8 3e 08 aa 1c be 0c 3e c7 bc
       -0.44000995 0.42208642 -0.15299237 -0.024321578
0001a0 33 4c 4e be 76 5f 6e 3d 40 e5 cb 3d 33 ed b6 3d
       -0.20146255 0.058196507 0.09955835 0.08931961
0001b0 43 a4 a1 3e fd b2 f3 bd 5e 9b 44 be aa ae 7e 3d
       0.31570634 -0.11899374 -0.19199893 0.06217829
0001c0 a7 15 40 be b4 6d fd 3d 81 55 cf 3d 12 af 8a 3b
       -0.1875826 0.1237444 0.101237305 0.004232296
0001d0 82 17 3d 3d 07 f5 63 be 30 67 17 be e0 be 3c 3e
       0.046164997 -0.2226144 -0.14785457 0.18432188
0001e0 a2 00 a4 3d 16 63 14 bd 30 36 8b 3e 49 c7 d1 3e
       0.08007933 -0.03622731 0.2718978 0.40972355
0001f0 f7 a0 31 3e 97 52 fb bd 97 1a a5 bd d7 be 3b 3e
       0.1734656 -0.12271612 -0.08061712 0.18334518
000200 fb 98 c7 bd 85 1c a2 be 48 3f 9d be a1 09 00 3d
       -0.097459756 -0.31662384 -0.30712342 0.031259183
000210 0f 05 17 bb c1 05 92 ba 61 a1 4a be 51 9b 43 be
       -0.0023043787 -0.0011140631 -0.19788124 -0.19102217
000220 7e 65 08 bf d4 3f 9d 3e 48 c7 e5 3d b7 f0 11 bd
       -0.53279865 0.3071276 0.112196505 -0.035629954
000230 9e 2b cb 3e d3 30 95 3e f9 be 70 bc 22 5b 51 3e
       0.39681715 0.29138812 -0.014693969 0.2044492
000240 43 cc 95 3c 7e 5f b9 bd 5e 0d b2 be c2 83 38 bc
       0.018285876 -0.09051417 -0.34775823 -0.011261882
000250 6f df b7 3e 1f 18 a0 3d 7c 7f 36 3e a3 34 15 bc
       0.35912654 0.07817101 0.17822069 -0.009106788
000260 af 16 8a 3d aa 8a 0d 3c 55 fb 39 3e 4f 7a be 3d
       0.06742608 0.008639017 0.18162282 0.09300672
000270 16 66 c7 bd 55 57 dc bd cd ff 79 bd 5e 9d 30 3d
       -0.09736268 -0.10758845 -0.061034966 0.043118827
000280 cb 62 2f 3d c5 00 25 3e e6 27 13 be f2 74 07 be
       0.042818826 0.16113575 -0.14370689 -0.13228205
000290 43 ee 30 3e df a5 09 be 43 b5 fe 3d 9c 5f 80 3d
       0.1727839 -0.13442181 0.12436917 0.06268236
0002a0 fb 5a 85 be c9 04 13 be 5d bc e5 bc 9c ff 67 3e
       -0.26045975 -0.14357294 -0.02804392 0.22656101
0002b0 3e e7 74 bd 43 96 01 bf 93 5e 71 3e bc 12 24 bf
       -0.059790842 -0.50619906 0.23571233 -0.64091086
0002c0 50 9f 9f 3e 03 d4 24 3e e0 61 13 3e 86 6a 0e be
       0.31176233 0.16096501 0.14392805 -0.13907823
0002d0 e6 a2 38 be ed f5 1d 3e bc 90 2b 3d ac a0 a5 be
       -0.18030891 0.15425844 0.041886076 -0.32349145
0002e0 fd 40 96 be cf 4c 91 3d 98 27 3a 3c 3b 89 cc 3e
       -0.29346457 0.07094728 0.011361979 0.3994845
0002f0 76 c2 81 bd ec 15 f1 bd 8a 52 e1 bd c3 0d 8c be
       -0.063359186 -0.117717594 -0.11002071 -0.2735425
000300 2d 57 81 be 97 af 43 be be 89 9b be 4d c7 00 3c
       -0.25261822 -0.19109951 -0.30378526 0.007860017
000310 0e 6a e1 bd ca 29 86 bd 8e 9d 72 bc 69 ca 3d 3d
       -0.110065565 -0.065509394 -0.014808072 0.04633561
000320 66 9c 31 be 69 76 76 bd 99 c0 7e bd 71 1f 1f be
       -0.17344818 -0.06017152 -0.062195394 -0.15539338
000330 42 d1 91 3e f4 b8 ea 3e f7 9d 16 be e1 29 3a bd
       0.28479964 0.45844233 -0.14708696 -0.045450095
000340 a2 1e 8c bd a4 76 a7 3e 9e 38 a5 3c bf a1 2d bd
       -0.0684178 0.32707703 0.020168599 -0.04239058
000350 ee e5 bd 3e b8 a3 e2 bd 59 a0 74 be 0d dc 38 3e
       0.37089485 -0.11066383 -0.23889293 0.18052693
000360 14 87 25 3e 28 ca 6c 3e 98 51 d7 bd d0 bc a2 bc
       0.1616481 0.23123991 -0.1051361 -0.019865423
000370 2e 13 0f 3e f2 07 5d 3a a0 eb 80 be 68 ac 33 3e
       0.1397216 0.0008431665 -0.25179768 0.17546237
000380 81 c8 87 3e 3d d4 fd 3e 2a f4 77 bc 19 24 92 be
       0.2652016 0.49575987 -0.015133897 -0.28543165
000390 19 bf 2b be 9b a5 6a be 47 a8 32 3e 70 f9 dc 3d
       -0.16772117 -0.22914736 0.17447005 0.10789764
0003a0 7a 0e 64 be 51 19 0c 3c fc dc 1d 3e 97 f8 5c be
       -0.22271147 0.008550958 0.1541633 -0.21579204
0003b0 47 84 90 3e ef 81 a7 be cf df 63 be 27 be 85 3d
       0.2822592 -0.3271632 -0.22253345 0.06530409
0003c0 84 e0 08 be 99 74 69 bd d5 07 12 be 87 19 9a be
       -0.13366896 -0.05699596 -0.142608 -0.300976
0003d0 e6 c2 a4 3d f3 6c 2a 3e d0 e5 80 3c 49 7c 04 be
       0.080449864 0.16643123 0.015734583 -0.12938036
0003e0 7d 7c 3b 3e a5 b6 03 be b5 17 af 3d 1c f0 f9 bb
       0.18309207 -0.12862642 0.08549444 -0.0076275
0003f0 4e 39 4e 3e d6 31 fb bd e8 f1 ea 3d 6b 70 08 be
       0.20139048 -0.12265365 0.11471921 -0.13324134

actor.init_leaf_node_embed.2.add_bias._bias f4 [64, 1]
000000 fb 62 0a be 3c 71 a3 bd 1c da 9f 3c 77 9a 96 3d
       -0.1351432 -0.07980582 0.019513182 0.073536806
000010 22 4a b4 3d 23 42 dc 3c ed 86 81 bd 8b bb 64 bd
       0.08803202 0.026887005 -0.06324563 -0.055842917
000020 ec fa ab 3c ef 77 1a bd f7 e4 bc 3d b8 5c b6 bd
       0.020993672 -0.037712034 0.09223359 -0.089044034
000030 d9 c2 e9 bd c2 49 47 be 78 20 02 be 04 d4 c4 bc
       -0.11414117 -0.1946173 -0.12707698 -0.024026878
000040 6b 25 0b 3c 06 53 0f bd 65 1d 94 bd c9 5d 93 bb
       0.008492808 -0.034991287 -0.07232169 -0.004497264
000050 29 96 b9 bc 5c ac 26 bc a9 1b 87 3d 56 0c d8 bc
       -0.02265461 -0.01017293 0.06597073 -0.02637307
000060 ac b2 a6 bc d2 ac b0 bd ce 36 97 3d 2b 43 3c 3e
       -0.02034887 -0.08626713 0.073835 0.18384998
000070 74 4c 64 bc 50 37 ca 3c 43 56 89 bd ae af fc bd
       -0.0139342435 0.024684578 -0.06705906 -0.12338196
000080 91 6b 57 3d e9 e1 de 3a 9e d4 06 3a c3 4e 06 be
       0.052592818 0.0017004582 0.0005143377 -0.13115983
000090 1d 59 ea bd 6e 58 15 3d 0b 7a 34 3e 01 82 2d 3e
       -0.11442778 0.036461286 0.1762468 0.16944124
0000a0 ac 8c ae 3c 77 39 1d 3d 58 66 28 3d 81 10 7b 3d
       0.021307312 0.03838488 0.041113228 0.061295036
0000b0 44 56 78 bc 08 ba 39 bd 06 b7 8f bc c3 50 70 3c
       -0.015157286 -0.04534343 -0.017543327 0.014667693
0000c0 ff f4 83 bd 57 53 14 3d b0 0e ff 3d 56 01 ba bc
       -0.06443214 0.03621229 0.12453973 -0.022705715
0000d0 d8 58 37 3c 16 c0 67 3d 48 a9 25 be 87 e5 4c 3d
       0.011190616 0.05657967 -0.16177857 0.05002358
0000e0 44 aa 2e be e2 9a 36 3c 87 3d c1 3d 38 49 d2 bd
       -0.17057139 0.011145325 0.094355635 -0.102678716
0000f0 21 47 05 3e 63 37 04 bd 99 da f2 3c 94 41 71 3d
       0.13015415 -0.032279383 0.029645251 0.05890043

actor.init_next_embed.0.module.weight f4 [32, 6]
000000 5a 29 51 3c b2 61 17 be d0 09 99 be af 62 0b bf
       0.012766207 -0.14783362 -0.298903 -0.54447454
000010 0e a5 5a bb 4a 1a 82 be 63 e0 44 3c 51 ff c7 bd
       -0.003336254 -0.25410682 0.012016389 -0.097654946
000020 04 51 3f 3e c6 e7 1a be 9a 95 31 be c5 e0 51 be
       0.18683249 -0.15127477 -0.17342225 -0.20495899
000030 d1 48 e9 bd 0d 16 89 be 77 fc 83 be 74 d8 62 3f
       -0.11390842 -0.26774636 -0.25778553 0.8861153
000040 df 28 8d 3e 2b 30 b6 bd e3 a6 29 3e fd fb 14 3d
       0.27570245 -0.08895906 0.16567568 0.036373127
000050 94 95 07 bd f9 3b 00 3f 2c c1 e9 be d3 ab e0 be
       -0.033101633 0.5009151 -0.4565519 -0.4388109
000060 aa 19 5f 3e 52 13 d8 be 92 1b fe bd e0 4d b6 be
       0.21787134 -0.4220224 -0.12407602 -0.3560629
000070 29 3e cd bd a5 59 e2 bd 4c 98 98 3c cc c5 13 bf
       -0.10021622 -0.110522546 0.018627308 -0.5772369
000080 bc 29 91 3e e8 35 b2 be 9f 62 0f bd bf e8 7a 3e
       0.28352153 -0.34806752 -0.03500616 0.24502848
000090 6a 39 a9 be 8b c7 d2 3d 8f 5a 91 3d f0 cb 9e 3e
       -0.33051616 0.10291966 0.07097351 0.31014967
0000a0 9e 49 a4 bd 2e d3 11 bd 8b 2e d5 bd c4 59 c9 3d
       -0.08021854 -0.035601787 -0.10409268 0.098315746
0000b0 b5 52 15 3e b3 0a 33 3e 2d e5 aa be 80 a4 6f 3e
       0.14582331 0.1748455 -0.33377972 0.23402596
0000c0 a4 fc 06 3d 79 28 17 bf 35 54 7a 3e 99 14 b6 3f
       0.03295578 -0.5904613 0.24446185 1.4225036
0000d0 e5 c8 47 3f 8d d1 47 3e 21 ae dd 3d 8c a0 95 be
       0.78040916 0.19513531 0.10824228 -0.2922405
0000e0 02 a6 3a be 7e d3 43 3d d4 59 b3 be de 15 e7 be
       -0.1822739 0.047809117 -0.3502947 -0.4513387
0000f0 ad e3 69 be 36 78 3a 3e 46 12 84 3c 08 77 73 3e
       -0.22840758 0.1820992 0.016121995 0.23775876
000100 01 a3 82 3e e5 ca f2 bd 4c 7e 01 3f a5 7c ef bc
       0.25514987 -0.11855105 0.5058334 -0.02923424
000110 10 2e b1 bc 7a d5 1e 3c 97 5d 0f 3d a7 1b b9 be
       -0.02162841 0.0096944515 0.035001364 -0.3615391
000120 42 ad b3 be 90 7e 06 bd 61 50 15 3e 76 3f 0a 3c
       -0.35093123 -0.032835543 0.14581443 0.008437982
000130 8d 51 7d be be 8d ab be d3 57 8d bd 0b a8 15 3c
       -0.2473814 -0.33506578 -0.06901517 0.009134303
000140 4f 46 fe 3d 21 b3 28 be ce a4 4b be bc 29 ef 3c
       0.12415754 -0.16474582 -0.19887087 0.029194705
000150 83 49 7e 3e 2d 89 69 be d9 14 83 be ad 80 31 3e
       0.2483273 -0.22806235 -0.25601843 0.17334242
000160 62 58 c0 be 3e 7d cd be b5 da 60 bc 10 3a 82 bd
       -0.3756743 -0.40134615 -0.013724019 -0.06358731
000170 68 6d 98 be 19 34 85 3f 61 3e 33 be fb f0 b2 3f
       -0.2977097 1.0406524 -0.17504264 1.3979791
000180 04 a1 8c be cc 78 0b bd 73 49 e6 bd 94 03 05 be
       -0.27466595 -0.034050748 -0.11244478 -0.12989646
000190 8b 81 cd be 90 25 f5 3d 62 81 13 3f 30 f0 4e bd
       -0.40137896 0.11970055 0.576193 -0.05052203
0001a0 51 bc 49 3e 8c 22 e5 bd cc cd 89 3c 9c 2c 84 3d
       0.19700743 -0.1118823 0.016821764 0.06453821
0001b0 54 fb a4 bd 3d 85 93 3e 19 18 6a 3e a0 68 87 3f
       -0.080557495 0.2881259 0.22860755 1.0578804
0001c0 7d e6 04 3f 7b 1a 90 3d 08 3b 11 3f 65 fe 79 3e
       0.519142 0.07036301 0.567307 0.2441345
0001d0 e8 a9 b7 be b4 b3 3f bf 00 bd 2f be 6d 27 6f 3e
       -0.35871816 -0.7488358 -0.17161942 0.23354883
0001e0 20 11 93 3e 50 55 d6 3c 58 e4 14 bd fc 32 e5 bd
       0.28724003 0.026163727 -0.036350578 -0.11191365
0001f0 93 eb 65 be 1f 98 81 3e 23 e5 2c be e2 10 58 be
       -0.22453146 0.25311372 -0.16884284 -0.2110019
000200 22 e0 37 bf 4f 9f a8 bc 37 fe 51 3d bb a8 b2 bd
       -0.71826375 -0.020583777 0.05126783 -0.08723589
000210 64 94 28 3e a4 45 17 be a0 75 c7 bd 17 6e 9d 3e
       0.16462857 -0.1477266 -0.09739232 0.30748054
000220 89 09 76 be e6 63 65 3e 02 d9 c9 3c 0e 27 88 be
       -0.24027075 0.2240139 0.02463961 -0.26592296
000230 32 62 a9 3e 46 4f 5e be 18 b0 8c 3e 36 a4 8d be
       0.3308273 -0.21709928 0.274781 -0.27664346
000240 8b a9 aa 3b 5f dc cb bd 22 d6 3a be 0c 97 b8 3f
       0.0052081994 -0.09954142 -0.18245748 1.4421096
000250 84 12 52 3f a1 bc 32 bf 0f 61 5e 3e b7 67 92 3e
       0.820595 -0.69819075 0.21716712 0.28594753
000260 a5 c0 83 bd 5f 7f 12 be c9 42 3c be 78 63 d9 be
       -0.064332284 -0.143064 -0.18384852 -0.424587
000270 83 c6 34 bd 93 fe a3 be 6a 75 39 3e 90 aa 48 3f
       -0.044134628 -0.32030162 0.18111196 0.7838526
000280 21 e9 24 3f 04 ef 5e 3e 18 ab 00 bf a3 c9 c3 be
       0.64418226 0.21770865 -0.5026107 -0.38239774
000290 81 4f 41 be bc 03 6d be 54 c6 64 3e f3 e1 14 be
       -0.18877985 -0.23145956 0.22341281 -0.14539318
0002a0 51 c6 58 3d 65 97 52 3e 04 ec 9b bc e7 7e 80 be
       0.052923504 0.20565565 -0.01903344 -0.2509682
0002b0 94 1b 53 3e cc 8e 57 be 7a 6b cc be ab 43 6c 3e
       0.20615989 -0.21050566 -0.39925748 0.23072688
0002c0 cd f5 af be 7f 95 da bc 03 08 99 3e 8c 8b 57 bc
       -0.3436722 -0.026682613 0.29888925 -0.013155829
0002d0 32 e6 03 be a4 b2 84 be ea 67 97 3e 83 b5 1b 3f
       -0.12880781 -0.25917542 0.29571468 0.6082384
0002e0 4c d2 bb 3d c9 44 65 3f 54 7e 17 3c 89 e3 67 be
       0.0917097 0.8955808 0.009246428 -0.22645392
0002f0 9d b3 f0 be b1 d5 51 3f 3a d2 81 3e 91 33 55 bd
       -0.47012034 0.8196669 0.25355703 -0.05205113

actor.init_next_embed.0.add_bias._bias f4 [32, 1]
000000 83 df 58 bc 34 8a 19 3c 92 ee 2e be 45 a8 0c bc
       -0.013236883 0.009371329 -0.17083195 -0.00858504
000010 ba d6 42 3c 07 0d f8 bd cc 6e 23 bd c5 4a c1 bd
       0.011892015 -0.1211186 -0.039900586 -0.09438089
000020 01 09 2e bd 24 2e c2 bb b2 40 98 bd 42 1f 9a bc
       -0.042489056 -0.0059259105 -0.07434215 -0.018813733
000030 0e d3 75 bc 67 7b b3 bc dd dc 2c 3e 6d 48 a7 be
       -0.015003933 -0.021909429 0.16881128 -0.32672444
000040 0d 08 32 bd ef 47 6f bd c0 b3 68 bc 92 0c aa bd
       -0.04346471 -0.05841821 -0.014203012 -0.08303179
000050 a4 0e b6 bd 95 a9 8d bc d8 13 05 be da b1 f3 bd
       -0.08889511 -0.017292777 -0.12995851 -0.11899157
000060 73 5a 13 3e 45 11 ba bc c8 52 d7 bd 11 0c 5f bc
       0.14389972 -0.022713313 -0.10513836 -0.013613717
000070 65 f7 73 bd 77 db a1 bd b1 86 bf be 9e 54 39 3c
       -0.059562106 -0.07903188 -0.3740745 0.011311678

actor.init_next_embed.2.module.weight f4 [64, 32]
000000 e3 44 88 3d 01 05 d2 bd 27 1a 42 3e 00 bc 35 3e
       0.06653764 -0.10254861 0.18955289 0.17747498
000010 04 6c 61 3d df 98 23 bd d2 12 32 be 6c e0 9a be
       0.055034652 -0.03994071 -0.17389992 -0.30249345
000020 18 ce a4 be 30 8a 9d 3e ba 7e 1d 3e e1 57 a8 3d
       -0.32188487 0.3076949 0.15380374 0.082198866
000030 16 c0 b0 3d 7c f7 f7 3d 0f 27 84 3e e3 e8 ca be
       0.086303875 0.12107751 0.2581105 -0.39630803
000040 dd 0b 29 be c7 fe 1b 3e 55 44 da bd 78 f7 da bd
       -0.16508432 0.15233909 -0.106575646 -0.10691732
000050 28 64 e1 3c a4 ea 6d 3e 28 af f5 be d2 97 63 bd
       0.027513579 0.2323404 -0.47985196 -0.05556471
000060 74 bf 95 be 1f 9f aa 3e 95 6a aa be fb 9d d8 bd
       -0.2924763 0.33324525 -0.3328444 -0.105770074
000070 2c a3 71 3e 8f ac 79 be 32 5c 63 bd e8 94 64 be
       0.23597401 -0.24382232 -0.055507846 -0.22322428
000080 8a 17 92 3e 70 64 56 bd 80 0c 73 bc 02 ba be bd
       0.28533584 -0.05234188 -0.014834523 -0.09312822
000090 3b ad ce bd 60 08 af bd ea d8 d6 bc be d6 08 bd
       -0.10091635 -0.08546519 -0.02622648 -0.03340792
0000a0 3d ba d0 3d 5e 3c 14 3d 1b 42 e4 3e e8 cb 71 3e
       0.10191772 0.036190383 0.44581684 0.2361294
0000b0 f9 3a c9 bc 45 99 01 3e 6f af c6 3d fb c6 87 be
       -0.024564253 0.12656124 0.0970143 -0.26518998
0000c0 6c f5 29 3e 8b 57 3d 3a a4 56 fd bd 1b 2a f8 3d
       0.16597527 0.0007222823 -0.12370041 0.12117406
0000d0 99 8b 47 3e 03 eb 74 3d da 10 72 ba 00 9d d4 3b
       0.19486846 0.059794437 -0.00092340785 0.0064884424
0000e0 19 10 e5 3c 93 d0 71 3e fe a7 ad bd ae 24 a9 be
       0.027961778 0.23614721 -0.084793076 -0.33035797
0000f0 6a f7 bb 3c 4a 8f a1 3e 7e c8 ac be 71 30 82 3d
       0.022945125 0.31554633 -0.33746713 0.06356896
000100 64 0e 1a 3d b7 aa 29 3d 52 84 a2 bd 51 4a 22 be
       0.03761138 0.041422572 -0.07935394 -0.15848662
000110 98 fc d9 3b 42 60 96 3d 76 be 08 be 9b 3c ba be
       0.006652426 0.073425785 -0.13353905 -0.36374363
000120 25 32 e8 bd fa 5f 08 be ba f2 e8 3d 2f c9 3f bd
       -0.11337689 -0.13317862 0.113744214 -0.046822723
000130 fe 0f c4 3d dc d0 d5 bd 0f 7f dc bd 7d f4 70 3e
       0.09573363 -0.104402274 -0.10766422 0.23530765
000140 e6 14 74 be 33 48 f3 bc 28 b0 2b 3e 47 3b 67 3d
       -0.23836097 -0.029697513 0.16766417 0.056453016
000150 85 e4 f4 bd 90 c1 7a 3d 27 f7 9b bd 37 62 86 bd
       -0.11957649 0.06121975 -0.076155 -0.06561702
000160 42 84 7b be 3b 1b ef 3d 47 be aa be 83 95 32 be
       -0.24562171 0.11675116 -0.33348295 -0.17439847
000170 9e ea 97 be 6e 01 2a be 52 52 f8 be 55 8d b2 be
       -0.29671186 -0.16602108 -0.48500305 -0.34873453
000180 a1 6f ba 3d 0a 5d 21 3e 66 a1 87 3e e5 f0 9c bd
       0.09103323 0.15758148 0.26490325 -0.076631345
000190 8d f5 b1 be 02 74 b0 bd c3 20 14 3e b6 f4 db 3d
       -0.34757653 -0.08615877 0.14465623 0.10740034
0001a0 a8 d6 3f 3d 83 79 77 3e 98 99 a3 be 36 b5 96 bd
       0.04683557 0.24167447 -0.3195312 -0.07358782
0001b0 2b f1 e9 3d b7 c9 56 3e af af f4 3d 32 2c fc bd
       0.11422952 0.20975386 0.119475715 -0.12313117
0001c0 a3 9f 24 be 22 f8 e5 3d ca 06 f1 3c 53 d9 6e 3c
       -0.16076522 0.11228968 0.029422183 0.014578181
0001d0 11 5a 55 bd f9 74 28 3c b7 ec 09 3e 19 58 69 bd
       -0.052087847 0.010281795 0.13469206 -0.056968782
0001e0 38 be 4d be 93 7e ec be 5a 84 36 be 49 de a2 be
       -0.20092094 -0.46190318 -0.17823926 -0.31810215
0001f0 a6 85 2e 3d 6f 00 b9 3d e6 91 2a bd d3 ec e7 3d
       0.042607926 0.09033286 -0.041643046 0.113244675
000200 a8 b0 20 be 18 16 c7 be 03 4f 97 bd 87 0d 83 3e
       -0.15692389 -0.38884044 -0.07388117 0.25596258
000210 1f 82 19 3e 60 30 e0 bd 48 8a b3 bc a3 a7 80 bd
       0.14991044 -0.10946727 -0.021916524 -0.06281974
000220 08 38 fc 3c ec c3 f9 bd 04 94 82 be 37 45 37 3e
       0.030788437 -0.12195572 -0.25503552 0.17897497
000230 7a 94 f0 bc 4b 13 80 bd 66 2c 0d 3f 35 49 2c be
       -0.029367674 -0.0625368 0.5514587 -0.16824801
000240 be 77 2e 3e 0f 20 48 3e 1c 17 8f bb 5d 6b 52 3e
       0.17037866 0.1954348 -0.0043667685 0.20548768
000250 47 a9 2e be b4 f4 b0 3d c5 ee 3d 3e 13 1e 3a bd
       -0.17056762 0.086404234 0.18548115 -0.045438837
000260 d7 a6 ad be fd 69 db bd 27 6a 97 3e 55 47 56 3e
       -0.3391635 -0.10713575 0.29573175 0.20925649
000270 ad 51 01 3d ca c6 93 bc 7f 8d 7f be 6e 3b d3 3d
       0.031572033 -0.018039126 -0.2495632 0.1031407
000280 48 48 f0 bd 50 27 bb bb 11 a4 4d be f5 35 f3 bd
       -0.117325366 -0.0057114735 -0.20082118 -0.11875526
000290 db c4 dd 3e 12 cc 2e 3e ad ce dc 3d a7 48 47 3e
       0.4331425 0.17070034 0.10781608 0.19461308
0002a0 47 dd ae bd e5 ea 61 3e 0b b7 b7 3d 00 d0 16 bd
       -0.08538299 0.22062261 0.089704596 -0.036819458
0002b0 26 eb 39 3d 5a ee 70 3e bc 14 b2 3d e8 4c 60 3e
       0.04539027 0.23528424 0.08695361 0.21904337
0002c0 4a 11 e4 bc a4 bf 40 3e 22 fc 71 bc ed 60 52 3d
       -0.027840275 0.18823105 -0.014769586 0.051361967
0002d0 8d fe 15 3d 9e c7 e0 bd c0 6d 83 3e 72 a0 d2 3d
       0.03661971 -0.10975574 0.2566967 0.10284509
0002e0 86 6e dc bd 5c 33 b2 bd e8 ab 88 3d 96 3b b2 3e
       -0.10763268 -0.08701202 0.066734135 0.34811085
0002f0 02 0c 15 be 89 b8 17 bb c7 c8 df 3d 4e 96 94 be
       -0.14555362 -0.0023150763 0.10926967 -0.29020923
000300 f9 69 1d 3d 07 32 1b 3e d5 9b 9f bc db 48 46 3e
       0.03843114 0.15155803 -0.019483486 0.1936373
000310 d8 4d 70 bc 88 e6 9a 3d de 4f 6e 3d c9 48 97 be
       -0.014666997 0.075635016 0.058181636 -0.29547718
000320 e4 fc 77 3d de 55 6a 3e 24 78 ba 3d 32 2b 5b bd
       0.06054391 0.22884318 0.09104946 -0.05350799
000330 1a d8 09 3d 5b 11 9e 3d 90 22 18 3e b2 27 cd be
       0.033653356 0.07718154 0.14856935 -0.40069348
000340 50 03 92 bc 76 34 57 3e 92 e5 a8 be 02 f2 d2 3d
       -0.017823845 0.21016106 -0.32987648 0.103000656
000350 8c e9 4c 3e 4f 73 85 be 9f ba f0 3d e6 da b9 3e
       0.20010966 -0.26064536 0.11754345 0.3629982
000360 58 e4 42 be 70 e1 ad 3d 04 dd c2 bd 8c 0b 5c be
       -0.19032419 0.084902644 -0.09514812 -0.2148878
000370 7e 72 86 be df 40 cb 3c 3d 48 30 3e 87 d7 2f be
       -0.26259226 0.024811206 0.17215057 -0.17172061
000380 c4 41 b8 3b 7b be d8 3c d3 f7 e1 3e 32 19 e4 3c
       0.0056230742 0.026458016 0.44134387 0.027844045
000390 33 e8 10 3e 7a 6d a4 be 7d 35 68 be d5 94 0c be
       0.14151077 -0.32114774 -0.22676654 -0.1372865
0003a0 07 b4 30 3f ee 46 d3 bc 40 2e ae 3e ba b2 ac bd
       0.690247 -0.025790658 0.3401966 -0.08432527
0003b0 65 91 d6 3d 26 fa f5 3e e4 28 18 3e 99 23 3b 3f
       0.104769506 0.4804241 0.14859349 0.7310119
0003c0 9d 75 9c 3d 5c 42 55 3e 91 47 44 3f 9c a4 f1 be
       0.076396205 0.20826095 0.766717 -0.471959
0003d0 b0 76 b1 be fc 1e 97 be 03 7b 71 be 2c 01 f7 3b
       -0.34660864 -0.29515827 -0.23582081 0.0075379815
0003e0 54 6d 15 3f 57 43 0c 3d db 68 f4 3e af cd b1 bd
       0.58369946 0.034243908 0.47736248 -0.08681809
0003f0 2c 89 bb bd bf 06 44 3e d7 c6 a6 3e ca 12 16 3f
       -0.09157023 0.19143198 0.32573578 0.5862242

actor.init_next_embed.2.add_bias._bias f4 [64, 1]
000000 9d df 69 3e 35 3e cf 3c 70 c8 83 bd 46 7a 4f 3c
       0.22839208 0.025298217 -0.06434715 0.01266343
000010 6e 6c 20 3f 99 c7 a0 be c9 99 1f 3d 20 d7 c8 3c
       0.6266545 -0.3140228 0.03896502 0.024516642
000020 97 92 d3 3d 5b 75 f6 bd 8a 21 af be 32 3c 8a 3d
       0.10330694 -0.120341025 -0.34205276 0.067497626
000030 ca a7 bd 3e 0a 98 4b be 65 ab 09 bd 13 a7 3b 3a
       0.37042075 -0.19882217 -0.03361072 0.000715838
000040 e3 2e 96 be b2 cf ad be ac 98 6a bf 6f 68 9b 3e
       -0.29332647 -0.3394752 -0.9163921 0.30353114
000050 c2 9b 3e 3f 95 bc 01 3f 8e ca 3f 3d 94 49 2c 3f
       0.7445642 0.5067838 0.04682403 0.6729977
000060 1d 09 a0 be 68 70 52 3a e1 a8 91 3e 95 f7 d5 be
       -0.31256953 0.0008027614 0.28449157 -0.41790453
000070 bc 7f b3 3e ae 4d 99 be 51 35 54 3d e3 f3 60 3e
       0.3505839 -0.29942077 0.05180866 0.21968035
000080 46 65 58 be ed e2 18 3f 16 92 9e be 95 18 24 3f
       -0.21132383 0.5972126 -0.3097083 0.6410001
000090 b9 c9 8c 3c b6 10 32 3d 0f 2b 19 bf 24 9e b3 be
       0.017186033 0.043472968 -0.5983133 -0.3508159
0000a0 c1 95 20 3f c4 e8 4d bd 22 4e a3 3e 0b b0 f0 3e
       0.62728506 -0.05027081 0.31895548 0.4700931
0000b0 b3 57 92 be 70 99 84 3d 96 10 e8 bd 60 79 2d bf
       -0.28582534 0.064745784 -0.113312885 -0.6776333
0000c0 f7 72 81 3e c4 6b 0a 3f cb 26 39 3f 29 0e 2a 3f
       0.25283024 0.5407069 0.7232482 0.66427857
0000d0 af d6 c6 bd 99 37 17 3d db e6 38 be 2f 04 67 3e
       -0.097089164 0.036918256 -0.18056814 0.2256019
0000e0 a9 41 1b bf be b2 65 3e 30 3b 1b be 1c e4 51 3c
       -0.60647064 0.22431466 -0.15159297 0.012810733
0000f0 ca 07 4b be 49 d3 c0 3d ff b4 fb 3e 5b 4d 1d be
       -0.1982719 0.094152994 0.49161527 -0.1536154
